node {
  name: "global_step/Initializer/zeros"
  op: "Const"
  attr {
    key: "_class"
    value {
      list {
        s: "loc:@global_step"
      }
    }
  }
  attr {
    key: "_output_shapes"
    value {
      list {
        shape {
        }
      }
    }
  }
  attr {
    key: "dtype"
    value {
      type: DT_INT64
    }
  }
  attr {
    key: "value"
    value {
      tensor {
        dtype: DT_INT64
        tensor_shape {
        }
        int64_val: 0
      }
    }
  }
}
node {
  name: "global_step"
  op: "VariableV2"
  attr {
    key: "_class"
    value {
      list {
        s: "loc:@global_step"
      }
    }
  }
  attr {
    key: "_output_shapes"
    value {
      list {
        shape {
        }
      }
    }
  }
  attr {
    key: "container"
    value {
      s: ""
    }
  }
  attr {
    key: "dtype"
    value {
      type: DT_INT64
    }
  }
  attr {
    key: "shape"
    value {
      shape {
      }
    }
  }
  attr {
    key: "shared_name"
    value {
      s: ""
    }
  }
}
node {
  name: "global_step/Assign"
  op: "Assign"
  input: "global_step"
  input: "global_step/Initializer/zeros"
  attr {
    key: "T"
    value {
      type: DT_INT64
    }
  }
  attr {
    key: "_class"
    value {
      list {
        s: "loc:@global_step"
      }
    }
  }
  attr {
    key: "_output_shapes"
    value {
      list {
        shape {
        }
      }
    }
  }
  attr {
    key: "use_locking"
    value {
      b: true
    }
  }
  attr {
    key: "validate_shape"
    value {
      b: true
    }
  }
}
node {
  name: "global_step/read"
  op: "Identity"
  input: "global_step"
  attr {
    key: "T"
    value {
      type: DT_INT64
    }
  }
  attr {
    key: "_class"
    value {
      list {
        s: "loc:@global_step"
      }
    }
  }
  attr {
    key: "_output_shapes"
    value {
      list {
        shape {
        }
      }
    }
  }
}
node {
  name: "IsVariableInitialized"
  op: "IsVariableInitialized"
  input: "global_step"
  attr {
    key: "_class"
    value {
      list {
        s: "loc:@global_step"
      }
    }
  }
  attr {
    key: "_output_shapes"
    value {
      list {
        shape {
        }
      }
    }
  }
  attr {
    key: "dtype"
    value {
      type: DT_INT64
    }
  }
}
node {
  name: "cond/Switch"
  op: "Switch"
  input: "IsVariableInitialized"
  input: "IsVariableInitialized"
  attr {
    key: "T"
    value {
      type: DT_BOOL
    }
  }
  attr {
    key: "_output_shapes"
    value {
      list {
        shape {
        }
        shape {
        }
      }
    }
  }
}
node {
  name: "cond/switch_t"
  op: "Identity"
  input: "cond/Switch:1"
  attr {
    key: "T"
    value {
      type: DT_BOOL
    }
  }
  attr {
    key: "_output_shapes"
    value {
      list {
        shape {
        }
      }
    }
  }
}
node {
  name: "cond/switch_f"
  op: "Identity"
  input: "cond/Switch"
  attr {
    key: "T"
    value {
      type: DT_BOOL
    }
  }
  attr {
    key: "_output_shapes"
    value {
      list {
        shape {
        }
      }
    }
  }
}
node {
  name: "cond/pred_id"
  op: "Identity"
  input: "IsVariableInitialized"
  attr {
    key: "T"
    value {
      type: DT_BOOL
    }
  }
  attr {
    key: "_output_shapes"
    value {
      list {
        shape {
        }
      }
    }
  }
}
node {
  name: "cond/read/Switch"
  op: "RefSwitch"
  input: "global_step"
  input: "cond/pred_id"
  attr {
    key: "T"
    value {
      type: DT_INT64
    }
  }
  attr {
    key: "_class"
    value {
      list {
        s: "loc:@global_step"
      }
    }
  }
  attr {
    key: "_output_shapes"
    value {
      list {
        shape {
        }
        shape {
        }
      }
    }
  }
}
node {
  name: "cond/read"
  op: "Identity"
  input: "cond/read/Switch:1"
  attr {
    key: "T"
    value {
      type: DT_INT64
    }
  }
  attr {
    key: "_output_shapes"
    value {
      list {
        shape {
        }
      }
    }
  }
}
node {
  name: "cond/Switch_1"
  op: "Switch"
  input: "global_step/Initializer/zeros"
  input: "cond/pred_id"
  attr {
    key: "T"
    value {
      type: DT_INT64
    }
  }
  attr {
    key: "_class"
    value {
      list {
        s: "loc:@global_step"
      }
    }
  }
  attr {
    key: "_output_shapes"
    value {
      list {
        shape {
        }
        shape {
        }
      }
    }
  }
}
node {
  name: "cond/Merge"
  op: "Merge"
  input: "cond/Switch_1"
  input: "cond/read"
  attr {
    key: "N"
    value {
      i: 2
    }
  }
  attr {
    key: "T"
    value {
      type: DT_INT64
    }
  }
  attr {
    key: "_output_shapes"
    value {
      list {
        shape {
        }
        shape {
        }
      }
    }
  }
}
node {
  name: "add/y"
  op: "Const"
  attr {
    key: "_output_shapes"
    value {
      list {
        shape {
        }
      }
    }
  }
  attr {
    key: "dtype"
    value {
      type: DT_INT64
    }
  }
  attr {
    key: "value"
    value {
      tensor {
        dtype: DT_INT64
        tensor_shape {
        }
        int64_val: 0
      }
    }
  }
}
node {
  name: "add"
  op: "Add"
  input: "cond/Merge"
  input: "add/y"
  attr {
    key: "T"
    value {
      type: DT_INT64
    }
  }
  attr {
    key: "_output_shapes"
    value {
      list {
        shape {
        }
      }
    }
  }
}
node {
  name: "file_names"
  op: "Const"
  device: "/device:CPU:0"
  attr {
    key: "_output_shapes"
    value {
      list {
        shape {
          dim {
            size: 1000
          }
        }
      }
    }
  }
  attr {
    key: "dtype"
    value {
      type: DT_STRING
    }
  }
  attr {
    key: "value"
    value {
      tensor {
        dtype: DT_STRING
        tensor_shape {
          dim {
            size: 1000
          }
        }
        string_val: "c:/Users/Fabrice/repos/MicroP/project/api/spectrograms/0_jackson_0.png"
        string_val: "c:/Users/Fabrice/repos/MicroP/project/api/spectrograms/0_jackson_1.png"
        string_val: "c:/Users/Fabrice/repos/MicroP/project/api/spectrograms/0_jackson_10.png"
        string_val: "c:/Users/Fabrice/repos/MicroP/project/api/spectrograms/0_jackson_11.png"
        string_val: "c:/Users/Fabrice/repos/MicroP/project/api/spectrograms/0_jackson_12.png"
        string_val: "c:/Users/Fabrice/repos/MicroP/project/api/spectrograms/0_jackson_13.png"
        string_val: "c:/Users/Fabrice/repos/MicroP/project/api/spectrograms/0_jackson_14.png"
        string_val: "c:/Users/Fabrice/repos/MicroP/project/api/spectrograms/0_jackson_15.png"
        string_val: "c:/Users/Fabrice/repos/MicroP/project/api/spectrograms/0_jackson_16.png"
        string_val: "c:/Users/Fabrice/repos/MicroP/project/api/spectrograms/0_jackson_17.png"
        string_val: "c:/Users/Fabrice/repos/MicroP/project/api/spectrograms/0_jackson_18.png"
        string_val: "c:/Users/Fabrice/repos/MicroP/project/api/spectrograms/0_jackson_19.png"
        string_val: "c:/Users/Fabrice/repos/MicroP/project/api/spectrograms/0_jackson_2.png"
        string_val: "c:/Users/Fabrice/repos/MicroP/project/api/spectrograms/0_jackson_20.png"
        string_val: "c:/Users/Fabrice/repos/MicroP/project/api/spectrograms/0_jackson_21.png"
        string_val: "c:/Users/Fabrice/repos/MicroP/project/api/spectrograms/0_jackson_22.png"
        string_val: "c:/Users/Fabrice/repos/MicroP/project/api/spectrograms/0_jackson_23.png"
        string_val: "c:/Users/Fabrice/repos/MicroP/project/api/spectrograms/0_jackson_24.png"
        string_val: "c:/Users/Fabrice/repos/MicroP/project/api/spectrograms/0_jackson_25.png"
        string_val: "c:/Users/Fabrice/repos/MicroP/project/api/spectrograms/0_jackson_26.png"
        string_val: "c:/Users/Fabrice/repos/MicroP/project/api/spectrograms/0_jackson_27.png"
        string_val: "c:/Users/Fabrice/repos/MicroP/project/api/spectrograms/0_jackson_28.png"
        string_val: "c:/Users/Fabrice/repos/MicroP/project/api/spectrograms/0_jackson_29.png"
        string_val: "c:/Users/Fabrice/repos/MicroP/project/api/spectrograms/0_jackson_3.png"
        string_val: "c:/Users/Fabrice/repos/MicroP/project/api/spectrograms/0_jackson_30.png"
        string_val: "c:/Users/Fabrice/repos/MicroP/project/api/spectrograms/0_jackson_31.png"
        string_val: "c:/Users/Fabrice/repos/MicroP/project/api/spectrograms/0_jackson_32.png"
        string_val: "c:/Users/Fabrice/repos/MicroP/project/api/spectrograms/0_jackson_33.png"
        string_val: "c:/Users/Fabrice/repos/MicroP/project/api/spectrograms/0_jackson_34.png"
        string_val: "c:/Users/Fabrice/repos/MicroP/project/api/spectrograms/0_jackson_35.png"
        string_val: "c:/Users/Fabrice/repos/MicroP/project/api/spectrograms/0_jackson_36.png"
        string_val: "c:/Users/Fabrice/repos/MicroP/project/api/spectrograms/0_jackson_37.png"
        string_val: "c:/Users/Fabrice/repos/MicroP/project/api/spectrograms/0_jackson_38.png"
        string_val: "c:/Users/Fabrice/repos/MicroP/project/api/spectrograms/0_jackson_39.png"
        string_val: "c:/Users/Fabrice/repos/MicroP/project/api/spectrograms/0_jackson_4.png"
        string_val: "c:/Users/Fabrice/repos/MicroP/project/api/spectrograms/0_jackson_40.png"
        string_val: "c:/Users/Fabrice/repos/MicroP/project/api/spectrograms/0_jackson_41.png"
        string_val: "c:/Users/Fabrice/repos/MicroP/project/api/spectrograms/0_jackson_42.png"
        string_val: "c:/Users/Fabrice/repos/MicroP/project/api/spectrograms/0_jackson_43.png"
        string_val: "c:/Users/Fabrice/repos/MicroP/project/api/spectrograms/0_jackson_44.png"
        string_val: "c:/Users/Fabrice/repos/MicroP/project/api/spectrograms/0_jackson_45.png"
        string_val: "c:/Users/Fabrice/repos/MicroP/project/api/spectrograms/0_jackson_46.png"
        string_val: "c:/Users/Fabrice/repos/MicroP/project/api/spectrograms/0_jackson_47.png"
        string_val: "c:/Users/Fabrice/repos/MicroP/project/api/spectrograms/0_jackson_48.png"
        string_val: "c:/Users/Fabrice/repos/MicroP/project/api/spectrograms/0_jackson_49.png"
        string_val: "c:/Users/Fabrice/repos/MicroP/project/api/spectrograms/0_jackson_5.png"
        string_val: "c:/Users/Fabrice/repos/MicroP/project/api/spectrograms/0_jackson_6.png"
        string_val: "c:/Users/Fabrice/repos/MicroP/project/api/spectrograms/0_jackson_7.png"
        string_val: "c:/Users/Fabrice/repos/MicroP/project/api/spectrograms/0_jackson_8.png"
        string_val: "c:/Users/Fabrice/repos/MicroP/project/api/spectrograms/0_jackson_9.png"
        string_val: "c:/Users/Fabrice/repos/MicroP/project/api/spectrograms/0_theo_0.png"
        string_val: "c:/Users/Fabrice/repos/MicroP/project/api/spectrograms/0_theo_1.png"
        string_val: "c:/Users/Fabrice/repos/MicroP/project/api/spectrograms/0_theo_10.png"
        string_val: "c:/Users/Fabrice/repos/MicroP/project/api/spectrograms/0_theo_11.png"
        string_val: "c:/Users/Fabrice/repos/MicroP/project/api/spectrograms/0_theo_12.png"
        string_val: "c:/Users/Fabrice/repos/MicroP/project/api/spectrograms/0_theo_13.png"
        string_val: "c:/Users/Fabrice/repos/MicroP/project/api/spectrograms/0_theo_14.png"
        string_val: "c:/Users/Fabrice/repos/MicroP/project/api/spectrograms/0_theo_15.png"
        string_val: "c:/Users/Fabrice/repos/MicroP/project/api/spectrograms/0_theo_16.png"
        string_val: "c:/Users/Fabrice/repos/MicroP/project/api/spectrograms/0_theo_17.png"
        string_val: "c:/Users/Fabrice/repos/MicroP/project/api/spectrograms/0_theo_18.png"
        string_val: "c:/Users/Fabrice/repos/MicroP/project/api/spectrograms/0_theo_19.png"
        string_val: "c:/Users/Fabrice/repos/MicroP/project/api/spectrograms/0_theo_2.png"
        string_val: "c:/Users/Fabrice/repos/MicroP/project/api/spectrograms/0_theo_20.png"
        string_val: "c:/Users/Fabrice/repos/MicroP/project/api/spectrograms/0_theo_21.png"
        string_val: "c:/Users/Fabrice/repos/MicroP/project/api/spectrograms/0_theo_22.png"
        string_val: "c:/Users/Fabrice/repos/MicroP/project/api/spectrograms/0_theo_23.png"
        string_val: "c:/Users/Fabrice/repos/MicroP/project/api/spectrograms/0_theo_24.png"
        string_val: "c:/Users/Fabrice/repos/MicroP/project/api/spectrograms/0_theo_25.png"
        string_val: "c:/Users/Fabrice/repos/MicroP/project/api/spectrograms/0_theo_26.png"
        string_val: "c:/Users/Fabrice/repos/MicroP/project/api/spectrograms/0_theo_27.png"
        string_val: "c:/Users/Fabrice/repos/MicroP/project/api/spectrograms/0_theo_28.png"
        string_val: "c:/Users/Fabrice/repos/MicroP/project/api/spectrograms/0_theo_29.png"
        string_val: "c:/Users/Fabrice/repos/MicroP/project/api/spectrograms/0_theo_3.png"
        string_val: "c:/Users/Fabrice/repos/MicroP/project/api/spectrograms/0_theo_30.png"
        string_val: "c:/Users/Fabrice/repos/MicroP/project/api/spectrograms/0_theo_31.png"
        string_val: "c:/Users/Fabrice/repos/MicroP/project/api/spectrograms/0_theo_32.png"
        string_val: "c:/Users/Fabrice/repos/MicroP/project/api/spectrograms/0_theo_33.png"
        string_val: "c:/Users/Fabrice/repos/MicroP/project/api/spectrograms/0_theo_34.png"
        string_val: "c:/Users/Fabrice/repos/MicroP/project/api/spectrograms/0_theo_35.png"
        string_val: "c:/Users/Fabrice/repos/MicroP/project/api/spectrograms/0_theo_36.png"
        string_val: "c:/Users/Fabrice/repos/MicroP/project/api/spectrograms/0_theo_37.png"
        string_val: "c:/Users/Fabrice/repos/MicroP/project/api/spectrograms/0_theo_38.png"
        string_val: "c:/Users/Fabrice/repos/MicroP/project/api/spectrograms/0_theo_39.png"
        string_val: "c:/Users/Fabrice/repos/MicroP/project/api/spectrograms/0_theo_4.png"
        string_val: "c:/Users/Fabrice/repos/MicroP/project/api/spectrograms/0_theo_40.png"
        string_val: "c:/Users/Fabrice/repos/MicroP/project/api/spectrograms/0_theo_41.png"
        string_val: "c:/Users/Fabrice/repos/MicroP/project/api/spectrograms/0_theo_42.png"
        string_val: "c:/Users/Fabrice/repos/MicroP/project/api/spectrograms/0_theo_43.png"
        string_val: "c:/Users/Fabrice/repos/MicroP/project/api/spectrograms/0_theo_44.png"
        string_val: "c:/Users/Fabrice/repos/MicroP/project/api/spectrograms/0_theo_45.png"
        string_val: "c:/Users/Fabrice/repos/MicroP/project/api/spectrograms/0_theo_46.png"
        string_val: "c:/Users/Fabrice/repos/MicroP/project/api/spectrograms/0_theo_47.png"
        string_val: "c:/Users/Fabrice/repos/MicroP/project/api/spectrograms/0_theo_48.png"
        string_val: "c:/Users/Fabrice/repos/MicroP/project/api/spectrograms/0_theo_49.png"
        string_val: "c:/Users/Fabrice/repos/MicroP/project/api/spectrograms/0_theo_5.png"
        string_val: "c:/Users/Fabrice/repos/MicroP/project/api/spectrograms/0_theo_6.png"
        string_val: "c:/Users/Fabrice/repos/MicroP/project/api/spectrograms/0_theo_7.png"
        string_val: "c:/Users/Fabrice/repos/MicroP/project/api/spectrograms/0_theo_8.png"
        string_val: "c:/Users/Fabrice/repos/MicroP/project/api/spectrograms/0_theo_9.png"
        string_val: "c:/Users/Fabrice/repos/MicroP/project/api/spectrograms/1_jackson_0.png"
        string_val: "c:/Users/Fabrice/repos/MicroP/project/api/spectrograms/1_jackson_1.png"
        string_val: "c:/Users/Fabrice/repos/MicroP/project/api/spectrograms/1_jackson_10.png"
        string_val: "c:/Users/Fabrice/repos/MicroP/project/api/spectrograms/1_jackson_11.png"
        string_val: "c:/Users/Fabrice/repos/MicroP/project/api/spectrograms/1_jackson_12.png"
        string_val: "c:/Users/Fabrice/repos/MicroP/project/api/spectrograms/1_jackson_13.png"
        string_val: "c:/Users/Fabrice/repos/MicroP/project/api/spectrograms/1_jackson_14.png"
        string_val: "c:/Users/Fabrice/repos/MicroP/project/api/spectrograms/1_jackson_15.png"
        string_val: "c:/Users/Fabrice/repos/MicroP/project/api/spectrograms/1_jackson_16.png"
        string_val: "c:/Users/Fabrice/repos/MicroP/project/api/spectrograms/1_jackson_17.png"
        string_val: "c:/Users/Fabrice/repos/MicroP/project/api/spectrograms/1_jackson_18.png"
        string_val: "c:/Users/Fabrice/repos/MicroP/project/api/spectrograms/1_jackson_19.png"
        string_val: "c:/Users/Fabrice/repos/MicroP/project/api/spectrograms/1_jackson_2.png"
        string_val: "c:/Users/Fabrice/repos/MicroP/project/api/spectrograms/1_jackson_20.png"
        string_val: "c:/Users/Fabrice/repos/MicroP/project/api/spectrograms/1_jackson_21.png"
        string_val: "c:/Users/Fabrice/repos/MicroP/project/api/spectrograms/1_jackson_22.png"
        string_val: "c:/Users/Fabrice/repos/MicroP/project/api/spectrograms/1_jackson_23.png"
        string_val: "c:/Users/Fabrice/repos/MicroP/project/api/spectrograms/1_jackson_24.png"
        string_val: "c:/Users/Fabrice/repos/MicroP/project/api/spectrograms/1_jackson_25.png"
        string_val: "c:/Users/Fabrice/repos/MicroP/project/api/spectrograms/1_jackson_26.png"
        string_val: "c:/Users/Fabrice/repos/MicroP/project/api/spectrograms/1_jackson_27.png"
        string_val: "c:/Users/Fabrice/repos/MicroP/project/api/spectrograms/1_jackson_28.png"
        string_val: "c:/Users/Fabrice/repos/MicroP/project/api/spectrograms/1_jackson_29.png"
        string_val: "c:/Users/Fabrice/repos/MicroP/project/api/spectrograms/1_jackson_3.png"
        string_val: "c:/Users/Fabrice/repos/MicroP/project/api/spectrograms/1_jackson_30.png"
        string_val: "c:/Users/Fabrice/repos/MicroP/project/api/spectrograms/1_jackson_31.png"
        string_val: "c:/Users/Fabrice/repos/MicroP/project/api/spectrograms/1_jackson_32.png"
        string_val: "c:/Users/Fabrice/repos/MicroP/project/api/spectrograms/1_jackson_33.png"
        string_val: "c:/Users/Fabrice/repos/MicroP/project/api/spectrograms/1_jackson_34.png"
        string_val: "c:/Users/Fabrice/repos/MicroP/project/api/spectrograms/1_jackson_35.png"
        string_val: "c:/Users/Fabrice/repos/MicroP/project/api/spectrograms/1_jackson_36.png"
        string_val: "c:/Users/Fabrice/repos/MicroP/project/api/spectrograms/1_jackson_37.png"
        string_val: "c:/Users/Fabrice/repos/MicroP/project/api/spectrograms/1_jackson_38.png"
        string_val: "c:/Users/Fabrice/repos/MicroP/project/api/spectrograms/1_jackson_39.png"
        string_val: "c:/Users/Fabrice/repos/MicroP/project/api/spectrograms/1_jackson_4.png"
        string_val: "c:/Users/Fabrice/repos/MicroP/project/api/spectrograms/1_jackson_40.png"
        string_val: "c:/Users/Fabrice/repos/MicroP/project/api/spectrograms/1_jackson_41.png"
        string_val: "c:/Users/Fabrice/repos/MicroP/project/api/spectrograms/1_jackson_42.png"
        string_val: "c:/Users/Fabrice/repos/MicroP/project/api/spectrograms/1_jackson_43.png"
        string_val: "c:/Users/Fabrice/repos/MicroP/project/api/spectrograms/1_jackson_44.png"
        string_val: "c:/Users/Fabrice/repos/MicroP/project/api/spectrograms/1_jackson_45.png"
        string_val: "c:/Users/Fabrice/repos/MicroP/project/api/spectrograms/1_jackson_46.png"
        string_val: "c:/Users/Fabrice/repos/MicroP/project/api/spectrograms/1_jackson_47.png"
        string_val: "c:/Users/Fabrice/repos/MicroP/project/api/spectrograms/1_jackson_48.png"
        string_val: "c:/Users/Fabrice/repos/MicroP/project/api/spectrograms/1_jackson_49.png"
        string_val: "c:/Users/Fabrice/repos/MicroP/project/api/spectrograms/1_jackson_5.png"
        string_val: "c:/Users/Fabrice/repos/MicroP/project/api/spectrograms/1_jackson_6.png"
        string_val: "c:/Users/Fabrice/repos/MicroP/project/api/spectrograms/1_jackson_7.png"
        string_val: "c:/Users/Fabrice/repos/MicroP/project/api/spectrograms/1_jackson_8.png"
        string_val: "c:/Users/Fabrice/repos/MicroP/project/api/spectrograms/1_jackson_9.png"
        string_val: "c:/Users/Fabrice/repos/MicroP/project/api/spectrograms/1_theo_0.png"
        string_val: "c:/Users/Fabrice/repos/MicroP/project/api/spectrograms/1_theo_1.png"
        string_val: "c:/Users/Fabrice/repos/MicroP/project/api/spectrograms/1_theo_10.png"
        string_val: "c:/Users/Fabrice/repos/MicroP/project/api/spectrograms/1_theo_11.png"
        string_val: "c:/Users/Fabrice/repos/MicroP/project/api/spectrograms/1_theo_12.png"
        string_val: "c:/Users/Fabrice/repos/MicroP/project/api/spectrograms/1_theo_13.png"
        string_val: "c:/Users/Fabrice/repos/MicroP/project/api/spectrograms/1_theo_14.png"
        string_val: "c:/Users/Fabrice/repos/MicroP/project/api/spectrograms/1_theo_15.png"
        string_val: "c:/Users/Fabrice/repos/MicroP/project/api/spectrograms/1_theo_16.png"
        string_val: "c:/Users/Fabrice/repos/MicroP/project/api/spectrograms/1_theo_17.png"
        string_val: "c:/Users/Fabrice/repos/MicroP/project/api/spectrograms/1_theo_18.png"
        string_val: "c:/Users/Fabrice/repos/MicroP/project/api/spectrograms/1_theo_19.png"
        string_val: "c:/Users/Fabrice/repos/MicroP/project/api/spectrograms/1_theo_2.png"
        string_val: "c:/Users/Fabrice/repos/MicroP/project/api/spectrograms/1_theo_20.png"
        string_val: "c:/Users/Fabrice/repos/MicroP/project/api/spectrograms/1_theo_21.png"
        string_val: "c:/Users/Fabrice/repos/MicroP/project/api/spectrograms/1_theo_22.png"
        string_val: "c:/Users/Fabrice/repos/MicroP/project/api/spectrograms/1_theo_23.png"
        string_val: "c:/Users/Fabrice/repos/MicroP/project/api/spectrograms/1_theo_24.png"
        string_val: "c:/Users/Fabrice/repos/MicroP/project/api/spectrograms/1_theo_25.png"
        string_val: "c:/Users/Fabrice/repos/MicroP/project/api/spectrograms/1_theo_26.png"
        string_val: "c:/Users/Fabrice/repos/MicroP/project/api/spectrograms/1_theo_27.png"
        string_val: "c:/Users/Fabrice/repos/MicroP/project/api/spectrograms/1_theo_28.png"
        string_val: "c:/Users/Fabrice/repos/MicroP/project/api/spectrograms/1_theo_29.png"
        string_val: "c:/Users/Fabrice/repos/MicroP/project/api/spectrograms/1_theo_3.png"
        string_val: "c:/Users/Fabrice/repos/MicroP/project/api/spectrograms/1_theo_30.png"
        string_val: "c:/Users/Fabrice/repos/MicroP/project/api/spectrograms/1_theo_31.png"
        string_val: "c:/Users/Fabrice/repos/MicroP/project/api/spectrograms/1_theo_32.png"
        string_val: "c:/Users/Fabrice/repos/MicroP/project/api/spectrograms/1_theo_33.png"
        string_val: "c:/Users/Fabrice/repos/MicroP/project/api/spectrograms/1_theo_34.png"
        string_val: "c:/Users/Fabrice/repos/MicroP/project/api/spectrograms/1_theo_35.png"
        string_val: "c:/Users/Fabrice/repos/MicroP/project/api/spectrograms/1_theo_36.png"
        string_val: "c:/Users/Fabrice/repos/MicroP/project/api/spectrograms/1_theo_37.png"
        string_val: "c:/Users/Fabrice/repos/MicroP/project/api/spectrograms/1_theo_38.png"
        string_val: "c:/Users/Fabrice/repos/MicroP/project/api/spectrograms/1_theo_39.png"
        string_val: "c:/Users/Fabrice/repos/MicroP/project/api/spectrograms/1_theo_4.png"
        string_val: "c:/Users/Fabrice/repos/MicroP/project/api/spectrograms/1_theo_40.png"
        string_val: "c:/Users/Fabrice/repos/MicroP/project/api/spectrograms/1_theo_41.png"
        string_val: "c:/Users/Fabrice/repos/MicroP/project/api/spectrograms/1_theo_42.png"
        string_val: "c:/Users/Fabrice/repos/MicroP/project/api/spectrograms/1_theo_43.png"
        string_val: "c:/Users/Fabrice/repos/MicroP/project/api/spectrograms/1_theo_44.png"
        string_val: "c:/Users/Fabrice/repos/MicroP/project/api/spectrograms/1_theo_45.png"
        string_val: "c:/Users/Fabrice/repos/MicroP/project/api/spectrograms/1_theo_46.png"
        string_val: "c:/Users/Fabrice/repos/MicroP/project/api/spectrograms/1_theo_47.png"
        string_val: "c:/Users/Fabrice/repos/MicroP/project/api/spectrograms/1_theo_48.png"
        string_val: "c:/Users/Fabrice/repos/MicroP/project/api/spectrograms/1_theo_49.png"
        string_val: "c:/Users/Fabrice/repos/MicroP/project/api/spectrograms/1_theo_5.png"
        string_val: "c:/Users/Fabrice/repos/MicroP/project/api/spectrograms/1_theo_6.png"
        string_val: "c:/Users/Fabrice/repos/MicroP/project/api/spectrograms/1_theo_7.png"
        string_val: "c:/Users/Fabrice/repos/MicroP/project/api/spectrograms/1_theo_8.png"
        string_val: "c:/Users/Fabrice/repos/MicroP/project/api/spectrograms/1_theo_9.png"
        string_val: "c:/Users/Fabrice/repos/MicroP/project/api/spectrograms/2_jackson_0.png"
        string_val: "c:/Users/Fabrice/repos/MicroP/project/api/spectrograms/2_jackson_1.png"
        string_val: "c:/Users/Fabrice/repos/MicroP/project/api/spectrograms/2_jackson_10.png"
        string_val: "c:/Users/Fabrice/repos/MicroP/project/api/spectrograms/2_jackson_11.png"
        string_val: "c:/Users/Fabrice/repos/MicroP/project/api/spectrograms/2_jackson_12.png"
        string_val: "c:/Users/Fabrice/repos/MicroP/project/api/spectrograms/2_jackson_13.png"
        string_val: "c:/Users/Fabrice/repos/MicroP/project/api/spectrograms/2_jackson_14.png"
        string_val: "c:/Users/Fabrice/repos/MicroP/project/api/spectrograms/2_jackson_15.png"
        string_val: "c:/Users/Fabrice/repos/MicroP/project/api/spectrograms/2_jackson_16.png"
        string_val: "c:/Users/Fabrice/repos/MicroP/project/api/spectrograms/2_jackson_17.png"
        string_val: "c:/Users/Fabrice/repos/MicroP/project/api/spectrograms/2_jackson_18.png"
        string_val: "c:/Users/Fabrice/repos/MicroP/project/api/spectrograms/2_jackson_19.png"
        string_val: "c:/Users/Fabrice/repos/MicroP/project/api/spectrograms/2_jackson_2.png"
        string_val: "c:/Users/Fabrice/repos/MicroP/project/api/spectrograms/2_jackson_20.png"
        string_val: "c:/Users/Fabrice/repos/MicroP/project/api/spectrograms/2_jackson_21.png"
        string_val: "c:/Users/Fabrice/repos/MicroP/project/api/spectrograms/2_jackson_22.png"
        string_val: "c:/Users/Fabrice/repos/MicroP/project/api/spectrograms/2_jackson_23.png"
        string_val: "c:/Users/Fabrice/repos/MicroP/project/api/spectrograms/2_jackson_24.png"
        string_val: "c:/Users/Fabrice/repos/MicroP/project/api/spectrograms/2_jackson_25.png"
        string_val: "c:/Users/Fabrice/repos/MicroP/project/api/spectrograms/2_jackson_26.png"
        string_val: "c:/Users/Fabrice/repos/MicroP/project/api/spectrograms/2_jackson_27.png"
        string_val: "c:/Users/Fabrice/repos/MicroP/project/api/spectrograms/2_jackson_28.png"
        string_val: "c:/Users/Fabrice/repos/MicroP/project/api/spectrograms/2_jackson_29.png"
        string_val: "c:/Users/Fabrice/repos/MicroP/project/api/spectrograms/2_jackson_3.png"
        string_val: "c:/Users/Fabrice/repos/MicroP/project/api/spectrograms/2_jackson_30.png"
        string_val: "c:/Users/Fabrice/repos/MicroP/project/api/spectrograms/2_jackson_31.png"
        string_val: "c:/Users/Fabrice/repos/MicroP/project/api/spectrograms/2_jackson_32.png"
        string_val: "c:/Users/Fabrice/repos/MicroP/project/api/spectrograms/2_jackson_33.png"
        string_val: "c:/Users/Fabrice/repos/MicroP/project/api/spectrograms/2_jackson_34.png"
        string_val: "c:/Users/Fabrice/repos/MicroP/project/api/spectrograms/2_jackson_35.png"
        string_val: "c:/Users/Fabrice/repos/MicroP/project/api/spectrograms/2_jackson_36.png"
        string_val: "c:/Users/Fabrice/repos/MicroP/project/api/spectrograms/2_jackson_37.png"
        string_val: "c:/Users/Fabrice/repos/MicroP/project/api/spectrograms/2_jackson_38.png"
        string_val: "c:/Users/Fabrice/repos/MicroP/project/api/spectrograms/2_jackson_39.png"
        string_val: "c:/Users/Fabrice/repos/MicroP/project/api/spectrograms/2_jackson_4.png"
        string_val: "c:/Users/Fabrice/repos/MicroP/project/api/spectrograms/2_jackson_40.png"
        string_val: "c:/Users/Fabrice/repos/MicroP/project/api/spectrograms/2_jackson_41.png"
        string_val: "c:/Users/Fabrice/repos/MicroP/project/api/spectrograms/2_jackson_42.png"
        string_val: "c:/Users/Fabrice/repos/MicroP/project/api/spectrograms/2_jackson_43.png"
        string_val: "c:/Users/Fabrice/repos/MicroP/project/api/spectrograms/2_jackson_44.png"
        string_val: "c:/Users/Fabrice/repos/MicroP/project/api/spectrograms/2_jackson_45.png"
        string_val: "c:/Users/Fabrice/repos/MicroP/project/api/spectrograms/2_jackson_46.png"
        string_val: "c:/Users/Fabrice/repos/MicroP/project/api/spectrograms/2_jackson_47.png"
        string_val: "c:/Users/Fabrice/repos/MicroP/project/api/spectrograms/2_jackson_48.png"
        string_val: "c:/Users/Fabrice/repos/MicroP/project/api/spectrograms/2_jackson_49.png"
        string_val: "c:/Users/Fabrice/repos/MicroP/project/api/spectrograms/2_jackson_5.png"
        string_val: "c:/Users/Fabrice/repos/MicroP/project/api/spectrograms/2_jackson_6.png"
        string_val: "c:/Users/Fabrice/repos/MicroP/project/api/spectrograms/2_jackson_7.png"
        string_val: "c:/Users/Fabrice/repos/MicroP/project/api/spectrograms/2_jackson_8.png"
        string_val: "c:/Users/Fabrice/repos/MicroP/project/api/spectrograms/2_jackson_9.png"
        string_val: "c:/Users/Fabrice/repos/MicroP/project/api/spectrograms/2_theo_0.png"
        string_val: "c:/Users/Fabrice/repos/MicroP/project/api/spectrograms/2_theo_1.png"
        string_val: "c:/Users/Fabrice/repos/MicroP/project/api/spectrograms/2_theo_10.png"
        string_val: "c:/Users/Fabrice/repos/MicroP/project/api/spectrograms/2_theo_11.png"
        string_val: "c:/Users/Fabrice/repos/MicroP/project/api/spectrograms/2_theo_12.png"
        string_val: "c:/Users/Fabrice/repos/MicroP/project/api/spectrograms/2_theo_13.png"
        string_val: "c:/Users/Fabrice/repos/MicroP/project/api/spectrograms/2_theo_14.png"
        string_val: "c:/Users/Fabrice/repos/MicroP/project/api/spectrograms/2_theo_15.png"
        string_val: "c:/Users/Fabrice/repos/MicroP/project/api/spectrograms/2_theo_16.png"
        string_val: "c:/Users/Fabrice/repos/MicroP/project/api/spectrograms/2_theo_17.png"
        string_val: "c:/Users/Fabrice/repos/MicroP/project/api/spectrograms/2_theo_18.png"
        string_val: "c:/Users/Fabrice/repos/MicroP/project/api/spectrograms/2_theo_19.png"
        string_val: "c:/Users/Fabrice/repos/MicroP/project/api/spectrograms/2_theo_2.png"
        string_val: "c:/Users/Fabrice/repos/MicroP/project/api/spectrograms/2_theo_20.png"
        string_val: "c:/Users/Fabrice/repos/MicroP/project/api/spectrograms/2_theo_21.png"
        string_val: "c:/Users/Fabrice/repos/MicroP/project/api/spectrograms/2_theo_22.png"
        string_val: "c:/Users/Fabrice/repos/MicroP/project/api/spectrograms/2_theo_23.png"
        string_val: "c:/Users/Fabrice/repos/MicroP/project/api/spectrograms/2_theo_24.png"
        string_val: "c:/Users/Fabrice/repos/MicroP/project/api/spectrograms/2_theo_25.png"
        string_val: "c:/Users/Fabrice/repos/MicroP/project/api/spectrograms/2_theo_26.png"
        string_val: "c:/Users/Fabrice/repos/MicroP/project/api/spectrograms/2_theo_27.png"
        string_val: "c:/Users/Fabrice/repos/MicroP/project/api/spectrograms/2_theo_28.png"
        string_val: "c:/Users/Fabrice/repos/MicroP/project/api/spectrograms/2_theo_29.png"
        string_val: "c:/Users/Fabrice/repos/MicroP/project/api/spectrograms/2_theo_3.png"
        string_val: "c:/Users/Fabrice/repos/MicroP/project/api/spectrograms/2_theo_30.png"
        string_val: "c:/Users/Fabrice/repos/MicroP/project/api/spectrograms/2_theo_31.png"
        string_val: "c:/Users/Fabrice/repos/MicroP/project/api/spectrograms/2_theo_32.png"
        string_val: "c:/Users/Fabrice/repos/MicroP/project/api/spectrograms/2_theo_33.png"
        string_val: "c:/Users/Fabrice/repos/MicroP/project/api/spectrograms/2_theo_34.png"
        string_val: "c:/Users/Fabrice/repos/MicroP/project/api/spectrograms/2_theo_35.png"
        string_val: "c:/Users/Fabrice/repos/MicroP/project/api/spectrograms/2_theo_36.png"
        string_val: "c:/Users/Fabrice/repos/MicroP/project/api/spectrograms/2_theo_37.png"
        string_val: "c:/Users/Fabrice/repos/MicroP/project/api/spectrograms/2_theo_38.png"
        string_val: "c:/Users/Fabrice/repos/MicroP/project/api/spectrograms/2_theo_39.png"
        string_val: "c:/Users/Fabrice/repos/MicroP/project/api/spectrograms/2_theo_4.png"
        string_val: "c:/Users/Fabrice/repos/MicroP/project/api/spectrograms/2_theo_40.png"
        string_val: "c:/Users/Fabrice/repos/MicroP/project/api/spectrograms/2_theo_41.png"
        string_val: "c:/Users/Fabrice/repos/MicroP/project/api/spectrograms/2_theo_42.png"
        string_val: "c:/Users/Fabrice/repos/MicroP/project/api/spectrograms/2_theo_43.png"
        string_val: "c:/Users/Fabrice/repos/MicroP/project/api/spectrograms/2_theo_44.png"
        string_val: "c:/Users/Fabrice/repos/MicroP/project/api/spectrograms/2_theo_45.png"
        string_val: "c:/Users/Fabrice/repos/MicroP/project/api/spectrograms/2_theo_46.png"
        string_val: "c:/Users/Fabrice/repos/MicroP/project/api/spectrograms/2_theo_47.png"
        string_val: "c:/Users/Fabrice/repos/MicroP/project/api/spectrograms/2_theo_48.png"
        string_val: "c:/Users/Fabrice/repos/MicroP/project/api/spectrograms/2_theo_49.png"
        string_val: "c:/Users/Fabrice/repos/MicroP/project/api/spectrograms/2_theo_5.png"
        string_val: "c:/Users/Fabrice/repos/MicroP/project/api/spectrograms/2_theo_6.png"
        string_val: "c:/Users/Fabrice/repos/MicroP/project/api/spectrograms/2_theo_7.png"
        string_val: "c:/Users/Fabrice/repos/MicroP/project/api/spectrograms/2_theo_8.png"
        string_val: "c:/Users/Fabrice/repos/MicroP/project/api/spectrograms/2_theo_9.png"
        string_val: "c:/Users/Fabrice/repos/MicroP/project/api/spectrograms/3_jackson_0.png"
        string_val: "c:/Users/Fabrice/repos/MicroP/project/api/spectrograms/3_jackson_1.png"
        string_val: "c:/Users/Fabrice/repos/MicroP/project/api/spectrograms/3_jackson_10.png"
        string_val: "c:/Users/Fabrice/repos/MicroP/project/api/spectrograms/3_jackson_11.png"
        string_val: "c:/Users/Fabrice/repos/MicroP/project/api/spectrograms/3_jackson_12.png"
        string_val: "c:/Users/Fabrice/repos/MicroP/project/api/spectrograms/3_jackson_13.png"
        string_val: "c:/Users/Fabrice/repos/MicroP/project/api/spectrograms/3_jackson_14.png"
        string_val: "c:/Users/Fabrice/repos/MicroP/project/api/spectrograms/3_jackson_15.png"
        string_val: "c:/Users/Fabrice/repos/MicroP/project/api/spectrograms/3_jackson_16.png"
        string_val: "c:/Users/Fabrice/repos/MicroP/project/api/spectrograms/3_jackson_17.png"
        string_val: "c:/Users/Fabrice/repos/MicroP/project/api/spectrograms/3_jackson_18.png"
        string_val: "c:/Users/Fabrice/repos/MicroP/project/api/spectrograms/3_jackson_19.png"
        string_val: "c:/Users/Fabrice/repos/MicroP/project/api/spectrograms/3_jackson_2.png"
        string_val: "c:/Users/Fabrice/repos/MicroP/project/api/spectrograms/3_jackson_20.png"
        string_val: "c:/Users/Fabrice/repos/MicroP/project/api/spectrograms/3_jackson_21.png"
        string_val: "c:/Users/Fabrice/repos/MicroP/project/api/spectrograms/3_jackson_22.png"
        string_val: "c:/Users/Fabrice/repos/MicroP/project/api/spectrograms/3_jackson_23.png"
        string_val: "c:/Users/Fabrice/repos/MicroP/project/api/spectrograms/3_jackson_24.png"
        string_val: "c:/Users/Fabrice/repos/MicroP/project/api/spectrograms/3_jackson_25.png"
        string_val: "c:/Users/Fabrice/repos/MicroP/project/api/spectrograms/3_jackson_26.png"
        string_val: "c:/Users/Fabrice/repos/MicroP/project/api/spectrograms/3_jackson_27.png"
        string_val: "c:/Users/Fabrice/repos/MicroP/project/api/spectrograms/3_jackson_28.png"
        string_val: "c:/Users/Fabrice/repos/MicroP/project/api/spectrograms/3_jackson_29.png"
        string_val: "c:/Users/Fabrice/repos/MicroP/project/api/spectrograms/3_jackson_3.png"
        string_val: "c:/Users/Fabrice/repos/MicroP/project/api/spectrograms/3_jackson_30.png"
        string_val: "c:/Users/Fabrice/repos/MicroP/project/api/spectrograms/3_jackson_31.png"
        string_val: "c:/Users/Fabrice/repos/MicroP/project/api/spectrograms/3_jackson_32.png"
        string_val: "c:/Users/Fabrice/repos/MicroP/project/api/spectrograms/3_jackson_33.png"
        string_val: "c:/Users/Fabrice/repos/MicroP/project/api/spectrograms/3_jackson_34.png"
        string_val: "c:/Users/Fabrice/repos/MicroP/project/api/spectrograms/3_jackson_35.png"
        string_val: "c:/Users/Fabrice/repos/MicroP/project/api/spectrograms/3_jackson_36.png"
        string_val: "c:/Users/Fabrice/repos/MicroP/project/api/spectrograms/3_jackson_37.png"
        string_val: "c:/Users/Fabrice/repos/MicroP/project/api/spectrograms/3_jackson_38.png"
        string_val: "c:/Users/Fabrice/repos/MicroP/project/api/spectrograms/3_jackson_39.png"
        string_val: "c:/Users/Fabrice/repos/MicroP/project/api/spectrograms/3_jackson_4.png"
        string_val: "c:/Users/Fabrice/repos/MicroP/project/api/spectrograms/3_jackson_40.png"
        string_val: "c:/Users/Fabrice/repos/MicroP/project/api/spectrograms/3_jackson_41.png"
        string_val: "c:/Users/Fabrice/repos/MicroP/project/api/spectrograms/3_jackson_42.png"
        string_val: "c:/Users/Fabrice/repos/MicroP/project/api/spectrograms/3_jackson_43.png"
        string_val: "c:/Users/Fabrice/repos/MicroP/project/api/spectrograms/3_jackson_44.png"
        string_val: "c:/Users/Fabrice/repos/MicroP/project/api/spectrograms/3_jackson_45.png"
        string_val: "c:/Users/Fabrice/repos/MicroP/project/api/spectrograms/3_jackson_46.png"
        string_val: "c:/Users/Fabrice/repos/MicroP/project/api/spectrograms/3_jackson_47.png"
        string_val: "c:/Users/Fabrice/repos/MicroP/project/api/spectrograms/3_jackson_48.png"
        string_val: "c:/Users/Fabrice/repos/MicroP/project/api/spectrograms/3_jackson_49.png"
        string_val: "c:/Users/Fabrice/repos/MicroP/project/api/spectrograms/3_jackson_5.png"
        string_val: "c:/Users/Fabrice/repos/MicroP/project/api/spectrograms/3_jackson_6.png"
        string_val: "c:/Users/Fabrice/repos/MicroP/project/api/spectrograms/3_jackson_7.png"
        string_val: "c:/Users/Fabrice/repos/MicroP/project/api/spectrograms/3_jackson_8.png"
        string_val: "c:/Users/Fabrice/repos/MicroP/project/api/spectrograms/3_jackson_9.png"
        string_val: "c:/Users/Fabrice/repos/MicroP/project/api/spectrograms/3_theo_0.png"
        string_val: "c:/Users/Fabrice/repos/MicroP/project/api/spectrograms/3_theo_1.png"
        string_val: "c:/Users/Fabrice/repos/MicroP/project/api/spectrograms/3_theo_10.png"
        string_val: "c:/Users/Fabrice/repos/MicroP/project/api/spectrograms/3_theo_11.png"
        string_val: "c:/Users/Fabrice/repos/MicroP/project/api/spectrograms/3_theo_12.png"
        string_val: "c:/Users/Fabrice/repos/MicroP/project/api/spectrograms/3_theo_13.png"
        string_val: "c:/Users/Fabrice/repos/MicroP/project/api/spectrograms/3_theo_14.png"
        string_val: "c:/Users/Fabrice/repos/MicroP/project/api/spectrograms/3_theo_15.png"
        string_val: "c:/Users/Fabrice/repos/MicroP/project/api/spectrograms/3_theo_16.png"
        string_val: "c:/Users/Fabrice/repos/MicroP/project/api/spectrograms/3_theo_17.png"
        string_val: "c:/Users/Fabrice/repos/MicroP/project/api/spectrograms/3_theo_18.png"
        string_val: "c:/Users/Fabrice/repos/MicroP/project/api/spectrograms/3_theo_19.png"
        string_val: "c:/Users/Fabrice/repos/MicroP/project/api/spectrograms/3_theo_2.png"
        string_val: "c:/Users/Fabrice/repos/MicroP/project/api/spectrograms/3_theo_20.png"
        string_val: "c:/Users/Fabrice/repos/MicroP/project/api/spectrograms/3_theo_21.png"
        string_val: "c:/Users/Fabrice/repos/MicroP/project/api/spectrograms/3_theo_22.png"
        string_val: "c:/Users/Fabrice/repos/MicroP/project/api/spectrograms/3_theo_23.png"
        string_val: "c:/Users/Fabrice/repos/MicroP/project/api/spectrograms/3_theo_24.png"
        string_val: "c:/Users/Fabrice/repos/MicroP/project/api/spectrograms/3_theo_25.png"
        string_val: "c:/Users/Fabrice/repos/MicroP/project/api/spectrograms/3_theo_26.png"
        string_val: "c:/Users/Fabrice/repos/MicroP/project/api/spectrograms/3_theo_27.png"
        string_val: "c:/Users/Fabrice/repos/MicroP/project/api/spectrograms/3_theo_28.png"
        string_val: "c:/Users/Fabrice/repos/MicroP/project/api/spectrograms/3_theo_29.png"
        string_val: "c:/Users/Fabrice/repos/MicroP/project/api/spectrograms/3_theo_3.png"
        string_val: "c:/Users/Fabrice/repos/MicroP/project/api/spectrograms/3_theo_30.png"
        string_val: "c:/Users/Fabrice/repos/MicroP/project/api/spectrograms/3_theo_31.png"
        string_val: "c:/Users/Fabrice/repos/MicroP/project/api/spectrograms/3_theo_32.png"
        string_val: "c:/Users/Fabrice/repos/MicroP/project/api/spectrograms/3_theo_33.png"
        string_val: "c:/Users/Fabrice/repos/MicroP/project/api/spectrograms/3_theo_34.png"
        string_val: "c:/Users/Fabrice/repos/MicroP/project/api/spectrograms/3_theo_35.png"
        string_val: "c:/Users/Fabrice/repos/MicroP/project/api/spectrograms/3_theo_36.png"
        string_val: "c:/Users/Fabrice/repos/MicroP/project/api/spectrograms/3_theo_37.png"
        string_val: "c:/Users/Fabrice/repos/MicroP/project/api/spectrograms/3_theo_38.png"
        string_val: "c:/Users/Fabrice/repos/MicroP/project/api/spectrograms/3_theo_39.png"
        string_val: "c:/Users/Fabrice/repos/MicroP/project/api/spectrograms/3_theo_4.png"
        string_val: "c:/Users/Fabrice/repos/MicroP/project/api/spectrograms/3_theo_40.png"
        string_val: "c:/Users/Fabrice/repos/MicroP/project/api/spectrograms/3_theo_41.png"
        string_val: "c:/Users/Fabrice/repos/MicroP/project/api/spectrograms/3_theo_42.png"
        string_val: "c:/Users/Fabrice/repos/MicroP/project/api/spectrograms/3_theo_43.png"
        string_val: "c:/Users/Fabrice/repos/MicroP/project/api/spectrograms/3_theo_44.png"
        string_val: "c:/Users/Fabrice/repos/MicroP/project/api/spectrograms/3_theo_45.png"
        string_val: "c:/Users/Fabrice/repos/MicroP/project/api/spectrograms/3_theo_46.png"
        string_val: "c:/Users/Fabrice/repos/MicroP/project/api/spectrograms/3_theo_47.png"
        string_val: "c:/Users/Fabrice/repos/MicroP/project/api/spectrograms/3_theo_48.png"
        string_val: "c:/Users/Fabrice/repos/MicroP/project/api/spectrograms/3_theo_49.png"
        string_val: "c:/Users/Fabrice/repos/MicroP/project/api/spectrograms/3_theo_5.png"
        string_val: "c:/Users/Fabrice/repos/MicroP/project/api/spectrograms/3_theo_6.png"
        string_val: "c:/Users/Fabrice/repos/MicroP/project/api/spectrograms/3_theo_7.png"
        string_val: "c:/Users/Fabrice/repos/MicroP/project/api/spectrograms/3_theo_8.png"
        string_val: "c:/Users/Fabrice/repos/MicroP/project/api/spectrograms/3_theo_9.png"
        string_val: "c:/Users/Fabrice/repos/MicroP/project/api/spectrograms/4_jackson_0.png"
        string_val: "c:/Users/Fabrice/repos/MicroP/project/api/spectrograms/4_jackson_1.png"
        string_val: "c:/Users/Fabrice/repos/MicroP/project/api/spectrograms/4_jackson_10.png"
        string_val: "c:/Users/Fabrice/repos/MicroP/project/api/spectrograms/4_jackson_11.png"
        string_val: "c:/Users/Fabrice/repos/MicroP/project/api/spectrograms/4_jackson_12.png"
        string_val: "c:/Users/Fabrice/repos/MicroP/project/api/spectrograms/4_jackson_13.png"
        string_val: "c:/Users/Fabrice/repos/MicroP/project/api/spectrograms/4_jackson_14.png"
        string_val: "c:/Users/Fabrice/repos/MicroP/project/api/spectrograms/4_jackson_15.png"
        string_val: "c:/Users/Fabrice/repos/MicroP/project/api/spectrograms/4_jackson_16.png"
        string_val: "c:/Users/Fabrice/repos/MicroP/project/api/spectrograms/4_jackson_17.png"
        string_val: "c:/Users/Fabrice/repos/MicroP/project/api/spectrograms/4_jackson_18.png"
        string_val: "c:/Users/Fabrice/repos/MicroP/project/api/spectrograms/4_jackson_19.png"
        string_val: "c:/Users/Fabrice/repos/MicroP/project/api/spectrograms/4_jackson_2.png"
        string_val: "c:/Users/Fabrice/repos/MicroP/project/api/spectrograms/4_jackson_20.png"
        string_val: "c:/Users/Fabrice/repos/MicroP/project/api/spectrograms/4_jackson_21.png"
        string_val: "c:/Users/Fabrice/repos/MicroP/project/api/spectrograms/4_jackson_22.png"
        string_val: "c:/Users/Fabrice/repos/MicroP/project/api/spectrograms/4_jackson_23.png"
        string_val: "c:/Users/Fabrice/repos/MicroP/project/api/spectrograms/4_jackson_24.png"
        string_val: "c:/Users/Fabrice/repos/MicroP/project/api/spectrograms/4_jackson_25.png"
        string_val: "c:/Users/Fabrice/repos/MicroP/project/api/spectrograms/4_jackson_26.png"
        string_val: "c:/Users/Fabrice/repos/MicroP/project/api/spectrograms/4_jackson_27.png"
        string_val: "c:/Users/Fabrice/repos/MicroP/project/api/spectrograms/4_jackson_28.png"
        string_val: "c:/Users/Fabrice/repos/MicroP/project/api/spectrograms/4_jackson_29.png"
        string_val: "c:/Users/Fabrice/repos/MicroP/project/api/spectrograms/4_jackson_3.png"
        string_val: "c:/Users/Fabrice/repos/MicroP/project/api/spectrograms/4_jackson_30.png"
        string_val: "c:/Users/Fabrice/repos/MicroP/project/api/spectrograms/4_jackson_31.png"
        string_val: "c:/Users/Fabrice/repos/MicroP/project/api/spectrograms/4_jackson_32.png"
        string_val: "c:/Users/Fabrice/repos/MicroP/project/api/spectrograms/4_jackson_33.png"
        string_val: "c:/Users/Fabrice/repos/MicroP/project/api/spectrograms/4_jackson_34.png"
        string_val: "c:/Users/Fabrice/repos/MicroP/project/api/spectrograms/4_jackson_35.png"
        string_val: "c:/Users/Fabrice/repos/MicroP/project/api/spectrograms/4_jackson_36.png"
        string_val: "c:/Users/Fabrice/repos/MicroP/project/api/spectrograms/4_jackson_37.png"
        string_val: "c:/Users/Fabrice/repos/MicroP/project/api/spectrograms/4_jackson_38.png"
        string_val: "c:/Users/Fabrice/repos/MicroP/project/api/spectrograms/4_jackson_39.png"
        string_val: "c:/Users/Fabrice/repos/MicroP/project/api/spectrograms/4_jackson_4.png"
        string_val: "c:/Users/Fabrice/repos/MicroP/project/api/spectrograms/4_jackson_40.png"
        string_val: "c:/Users/Fabrice/repos/MicroP/project/api/spectrograms/4_jackson_41.png"
        string_val: "c:/Users/Fabrice/repos/MicroP/project/api/spectrograms/4_jackson_42.png"
        string_val: "c:/Users/Fabrice/repos/MicroP/project/api/spectrograms/4_jackson_43.png"
        string_val: "c:/Users/Fabrice/repos/MicroP/project/api/spectrograms/4_jackson_44.png"
        string_val: "c:/Users/Fabrice/repos/MicroP/project/api/spectrograms/4_jackson_45.png"
        string_val: "c:/Users/Fabrice/repos/MicroP/project/api/spectrograms/4_jackson_46.png"
        string_val: "c:/Users/Fabrice/repos/MicroP/project/api/spectrograms/4_jackson_47.png"
        string_val: "c:/Users/Fabrice/repos/MicroP/project/api/spectrograms/4_jackson_48.png"
        string_val: "c:/Users/Fabrice/repos/MicroP/project/api/spectrograms/4_jackson_49.png"
        string_val: "c:/Users/Fabrice/repos/MicroP/project/api/spectrograms/4_jackson_5.png"
        string_val: "c:/Users/Fabrice/repos/MicroP/project/api/spectrograms/4_jackson_6.png"
        string_val: "c:/Users/Fabrice/repos/MicroP/project/api/spectrograms/4_jackson_7.png"
        string_val: "c:/Users/Fabrice/repos/MicroP/project/api/spectrograms/4_jackson_8.png"
        string_val: "c:/Users/Fabrice/repos/MicroP/project/api/spectrograms/4_jackson_9.png"
        string_val: "c:/Users/Fabrice/repos/MicroP/project/api/spectrograms/4_theo_0.png"
        string_val: "c:/Users/Fabrice/repos/MicroP/project/api/spectrograms/4_theo_1.png"
        string_val: "c:/Users/Fabrice/repos/MicroP/project/api/spectrograms/4_theo_10.png"
        string_val: "c:/Users/Fabrice/repos/MicroP/project/api/spectrograms/4_theo_11.png"
        string_val: "c:/Users/Fabrice/repos/MicroP/project/api/spectrograms/4_theo_12.png"
        string_val: "c:/Users/Fabrice/repos/MicroP/project/api/spectrograms/4_theo_13.png"
        string_val: "c:/Users/Fabrice/repos/MicroP/project/api/spectrograms/4_theo_14.png"
        string_val: "c:/Users/Fabrice/repos/MicroP/project/api/spectrograms/4_theo_15.png"
        string_val: "c:/Users/Fabrice/repos/MicroP/project/api/spectrograms/4_theo_16.png"
        string_val: "c:/Users/Fabrice/repos/MicroP/project/api/spectrograms/4_theo_17.png"
        string_val: "c:/Users/Fabrice/repos/MicroP/project/api/spectrograms/4_theo_18.png"
        string_val: "c:/Users/Fabrice/repos/MicroP/project/api/spectrograms/4_theo_19.png"
        string_val: "c:/Users/Fabrice/repos/MicroP/project/api/spectrograms/4_theo_2.png"
        string_val: "c:/Users/Fabrice/repos/MicroP/project/api/spectrograms/4_theo_20.png"
        string_val: "c:/Users/Fabrice/repos/MicroP/project/api/spectrograms/4_theo_21.png"
        string_val: "c:/Users/Fabrice/repos/MicroP/project/api/spectrograms/4_theo_22.png"
        string_val: "c:/Users/Fabrice/repos/MicroP/project/api/spectrograms/4_theo_23.png"
        string_val: "c:/Users/Fabrice/repos/MicroP/project/api/spectrograms/4_theo_24.png"
        string_val: "c:/Users/Fabrice/repos/MicroP/project/api/spectrograms/4_theo_25.png"
        string_val: "c:/Users/Fabrice/repos/MicroP/project/api/spectrograms/4_theo_26.png"
        string_val: "c:/Users/Fabrice/repos/MicroP/project/api/spectrograms/4_theo_27.png"
        string_val: "c:/Users/Fabrice/repos/MicroP/project/api/spectrograms/4_theo_28.png"
        string_val: "c:/Users/Fabrice/repos/MicroP/project/api/spectrograms/4_theo_29.png"
        string_val: "c:/Users/Fabrice/repos/MicroP/project/api/spectrograms/4_theo_3.png"
        string_val: "c:/Users/Fabrice/repos/MicroP/project/api/spectrograms/4_theo_30.png"
        string_val: "c:/Users/Fabrice/repos/MicroP/project/api/spectrograms/4_theo_31.png"
        string_val: "c:/Users/Fabrice/repos/MicroP/project/api/spectrograms/4_theo_32.png"
        string_val: "c:/Users/Fabrice/repos/MicroP/project/api/spectrograms/4_theo_33.png"
        string_val: "c:/Users/Fabrice/repos/MicroP/project/api/spectrograms/4_theo_34.png"
        string_val: "c:/Users/Fabrice/repos/MicroP/project/api/spectrograms/4_theo_35.png"
        string_val: "c:/Users/Fabrice/repos/MicroP/project/api/spectrograms/4_theo_36.png"
        string_val: "c:/Users/Fabrice/repos/MicroP/project/api/spectrograms/4_theo_37.png"
        string_val: "c:/Users/Fabrice/repos/MicroP/project/api/spectrograms/4_theo_38.png"
        string_val: "c:/Users/Fabrice/repos/MicroP/project/api/spectrograms/4_theo_39.png"
        string_val: "c:/Users/Fabrice/repos/MicroP/project/api/spectrograms/4_theo_4.png"
        string_val: "c:/Users/Fabrice/repos/MicroP/project/api/spectrograms/4_theo_40.png"
        string_val: "c:/Users/Fabrice/repos/MicroP/project/api/spectrograms/4_theo_41.png"
        string_val: "c:/Users/Fabrice/repos/MicroP/project/api/spectrograms/4_theo_42.png"
        string_val: "c:/Users/Fabrice/repos/MicroP/project/api/spectrograms/4_theo_43.png"
        string_val: "c:/Users/Fabrice/repos/MicroP/project/api/spectrograms/4_theo_44.png"
        string_val: "c:/Users/Fabrice/repos/MicroP/project/api/spectrograms/4_theo_45.png"
        string_val: "c:/Users/Fabrice/repos/MicroP/project/api/spectrograms/4_theo_46.png"
        string_val: "c:/Users/Fabrice/repos/MicroP/project/api/spectrograms/4_theo_47.png"
        string_val: "c:/Users/Fabrice/repos/MicroP/project/api/spectrograms/4_theo_48.png"
        string_val: "c:/Users/Fabrice/repos/MicroP/project/api/spectrograms/4_theo_49.png"
        string_val: "c:/Users/Fabrice/repos/MicroP/project/api/spectrograms/4_theo_5.png"
        string_val: "c:/Users/Fabrice/repos/MicroP/project/api/spectrograms/4_theo_6.png"
        string_val: "c:/Users/Fabrice/repos/MicroP/project/api/spectrograms/4_theo_7.png"
        string_val: "c:/Users/Fabrice/repos/MicroP/project/api/spectrograms/4_theo_8.png"
        string_val: "c:/Users/Fabrice/repos/MicroP/project/api/spectrograms/4_theo_9.png"
        string_val: "c:/Users/Fabrice/repos/MicroP/project/api/spectrograms/5_jackson_0.png"
        string_val: "c:/Users/Fabrice/repos/MicroP/project/api/spectrograms/5_jackson_1.png"
        string_val: "c:/Users/Fabrice/repos/MicroP/project/api/spectrograms/5_jackson_10.png"
        string_val: "c:/Users/Fabrice/repos/MicroP/project/api/spectrograms/5_jackson_11.png"
        string_val: "c:/Users/Fabrice/repos/MicroP/project/api/spectrograms/5_jackson_12.png"
        string_val: "c:/Users/Fabrice/repos/MicroP/project/api/spectrograms/5_jackson_13.png"
        string_val: "c:/Users/Fabrice/repos/MicroP/project/api/spectrograms/5_jackson_14.png"
        string_val: "c:/Users/Fabrice/repos/MicroP/project/api/spectrograms/5_jackson_15.png"
        string_val: "c:/Users/Fabrice/repos/MicroP/project/api/spectrograms/5_jackson_16.png"
        string_val: "c:/Users/Fabrice/repos/MicroP/project/api/spectrograms/5_jackson_17.png"
        string_val: "c:/Users/Fabrice/repos/MicroP/project/api/spectrograms/5_jackson_18.png"
        string_val: "c:/Users/Fabrice/repos/MicroP/project/api/spectrograms/5_jackson_19.png"
        string_val: "c:/Users/Fabrice/repos/MicroP/project/api/spectrograms/5_jackson_2.png"
        string_val: "c:/Users/Fabrice/repos/MicroP/project/api/spectrograms/5_jackson_20.png"
        string_val: "c:/Users/Fabrice/repos/MicroP/project/api/spectrograms/5_jackson_21.png"
        string_val: "c:/Users/Fabrice/repos/MicroP/project/api/spectrograms/5_jackson_22.png"
        string_val: "c:/Users/Fabrice/repos/MicroP/project/api/spectrograms/5_jackson_23.png"
        string_val: "c:/Users/Fabrice/repos/MicroP/project/api/spectrograms/5_jackson_24.png"
        string_val: "c:/Users/Fabrice/repos/MicroP/project/api/spectrograms/5_jackson_25.png"
        string_val: "c:/Users/Fabrice/repos/MicroP/project/api/spectrograms/5_jackson_26.png"
        string_val: "c:/Users/Fabrice/repos/MicroP/project/api/spectrograms/5_jackson_27.png"
        string_val: "c:/Users/Fabrice/repos/MicroP/project/api/spectrograms/5_jackson_28.png"
        string_val: "c:/Users/Fabrice/repos/MicroP/project/api/spectrograms/5_jackson_29.png"
        string_val: "c:/Users/Fabrice/repos/MicroP/project/api/spectrograms/5_jackson_3.png"
        string_val: "c:/Users/Fabrice/repos/MicroP/project/api/spectrograms/5_jackson_30.png"
        string_val: "c:/Users/Fabrice/repos/MicroP/project/api/spectrograms/5_jackson_31.png"
        string_val: "c:/Users/Fabrice/repos/MicroP/project/api/spectrograms/5_jackson_32.png"
        string_val: "c:/Users/Fabrice/repos/MicroP/project/api/spectrograms/5_jackson_33.png"
        string_val: "c:/Users/Fabrice/repos/MicroP/project/api/spectrograms/5_jackson_34.png"
        string_val: "c:/Users/Fabrice/repos/MicroP/project/api/spectrograms/5_jackson_35.png"
        string_val: "c:/Users/Fabrice/repos/MicroP/project/api/spectrograms/5_jackson_36.png"
        string_val: "c:/Users/Fabrice/repos/MicroP/project/api/spectrograms/5_jackson_37.png"
        string_val: "c:/Users/Fabrice/repos/MicroP/project/api/spectrograms/5_jackson_38.png"
        string_val: "c:/Users/Fabrice/repos/MicroP/project/api/spectrograms/5_jackson_39.png"
        string_val: "c:/Users/Fabrice/repos/MicroP/project/api/spectrograms/5_jackson_4.png"
        string_val: "c:/Users/Fabrice/repos/MicroP/project/api/spectrograms/5_jackson_40.png"
        string_val: "c:/Users/Fabrice/repos/MicroP/project/api/spectrograms/5_jackson_41.png"
        string_val: "c:/Users/Fabrice/repos/MicroP/project/api/spectrograms/5_jackson_42.png"
        string_val: "c:/Users/Fabrice/repos/MicroP/project/api/spectrograms/5_jackson_43.png"
        string_val: "c:/Users/Fabrice/repos/MicroP/project/api/spectrograms/5_jackson_44.png"
        string_val: "c:/Users/Fabrice/repos/MicroP/project/api/spectrograms/5_jackson_45.png"
        string_val: "c:/Users/Fabrice/repos/MicroP/project/api/spectrograms/5_jackson_46.png"
        string_val: "c:/Users/Fabrice/repos/MicroP/project/api/spectrograms/5_jackson_47.png"
        string_val: "c:/Users/Fabrice/repos/MicroP/project/api/spectrograms/5_jackson_48.png"
        string_val: "c:/Users/Fabrice/repos/MicroP/project/api/spectrograms/5_jackson_49.png"
        string_val: "c:/Users/Fabrice/repos/MicroP/project/api/spectrograms/5_jackson_5.png"
        string_val: "c:/Users/Fabrice/repos/MicroP/project/api/spectrograms/5_jackson_6.png"
        string_val: "c:/Users/Fabrice/repos/MicroP/project/api/spectrograms/5_jackson_7.png"
        string_val: "c:/Users/Fabrice/repos/MicroP/project/api/spectrograms/5_jackson_8.png"
        string_val: "c:/Users/Fabrice/repos/MicroP/project/api/spectrograms/5_jackson_9.png"
        string_val: "c:/Users/Fabrice/repos/MicroP/project/api/spectrograms/5_theo_0.png"
        string_val: "c:/Users/Fabrice/repos/MicroP/project/api/spectrograms/5_theo_1.png"
        string_val: "c:/Users/Fabrice/repos/MicroP/project/api/spectrograms/5_theo_10.png"
        string_val: "c:/Users/Fabrice/repos/MicroP/project/api/spectrograms/5_theo_11.png"
        string_val: "c:/Users/Fabrice/repos/MicroP/project/api/spectrograms/5_theo_12.png"
        string_val: "c:/Users/Fabrice/repos/MicroP/project/api/spectrograms/5_theo_13.png"
        string_val: "c:/Users/Fabrice/repos/MicroP/project/api/spectrograms/5_theo_14.png"
        string_val: "c:/Users/Fabrice/repos/MicroP/project/api/spectrograms/5_theo_15.png"
        string_val: "c:/Users/Fabrice/repos/MicroP/project/api/spectrograms/5_theo_16.png"
        string_val: "c:/Users/Fabrice/repos/MicroP/project/api/spectrograms/5_theo_17.png"
        string_val: "c:/Users/Fabrice/repos/MicroP/project/api/spectrograms/5_theo_18.png"
        string_val: "c:/Users/Fabrice/repos/MicroP/project/api/spectrograms/5_theo_19.png"
        string_val: "c:/Users/Fabrice/repos/MicroP/project/api/spectrograms/5_theo_2.png"
        string_val: "c:/Users/Fabrice/repos/MicroP/project/api/spectrograms/5_theo_20.png"
        string_val: "c:/Users/Fabrice/repos/MicroP/project/api/spectrograms/5_theo_21.png"
        string_val: "c:/Users/Fabrice/repos/MicroP/project/api/spectrograms/5_theo_22.png"
        string_val: "c:/Users/Fabrice/repos/MicroP/project/api/spectrograms/5_theo_23.png"
        string_val: "c:/Users/Fabrice/repos/MicroP/project/api/spectrograms/5_theo_24.png"
        string_val: "c:/Users/Fabrice/repos/MicroP/project/api/spectrograms/5_theo_25.png"
        string_val: "c:/Users/Fabrice/repos/MicroP/project/api/spectrograms/5_theo_26.png"
        string_val: "c:/Users/Fabrice/repos/MicroP/project/api/spectrograms/5_theo_27.png"
        string_val: "c:/Users/Fabrice/repos/MicroP/project/api/spectrograms/5_theo_28.png"
        string_val: "c:/Users/Fabrice/repos/MicroP/project/api/spectrograms/5_theo_29.png"
        string_val: "c:/Users/Fabrice/repos/MicroP/project/api/spectrograms/5_theo_3.png"
        string_val: "c:/Users/Fabrice/repos/MicroP/project/api/spectrograms/5_theo_30.png"
        string_val: "c:/Users/Fabrice/repos/MicroP/project/api/spectrograms/5_theo_31.png"
        string_val: "c:/Users/Fabrice/repos/MicroP/project/api/spectrograms/5_theo_32.png"
        string_val: "c:/Users/Fabrice/repos/MicroP/project/api/spectrograms/5_theo_33.png"
        string_val: "c:/Users/Fabrice/repos/MicroP/project/api/spectrograms/5_theo_34.png"
        string_val: "c:/Users/Fabrice/repos/MicroP/project/api/spectrograms/5_theo_35.png"
        string_val: "c:/Users/Fabrice/repos/MicroP/project/api/spectrograms/5_theo_36.png"
        string_val: "c:/Users/Fabrice/repos/MicroP/project/api/spectrograms/5_theo_37.png"
        string_val: "c:/Users/Fabrice/repos/MicroP/project/api/spectrograms/5_theo_38.png"
        string_val: "c:/Users/Fabrice/repos/MicroP/project/api/spectrograms/5_theo_39.png"
        string_val: "c:/Users/Fabrice/repos/MicroP/project/api/spectrograms/5_theo_4.png"
        string_val: "c:/Users/Fabrice/repos/MicroP/project/api/spectrograms/5_theo_40.png"
        string_val: "c:/Users/Fabrice/repos/MicroP/project/api/spectrograms/5_theo_41.png"
        string_val: "c:/Users/Fabrice/repos/MicroP/project/api/spectrograms/5_theo_42.png"
        string_val: "c:/Users/Fabrice/repos/MicroP/project/api/spectrograms/5_theo_43.png"
        string_val: "c:/Users/Fabrice/repos/MicroP/project/api/spectrograms/5_theo_44.png"
        string_val: "c:/Users/Fabrice/repos/MicroP/project/api/spectrograms/5_theo_45.png"
        string_val: "c:/Users/Fabrice/repos/MicroP/project/api/spectrograms/5_theo_46.png"
        string_val: "c:/Users/Fabrice/repos/MicroP/project/api/spectrograms/5_theo_47.png"
        string_val: "c:/Users/Fabrice/repos/MicroP/project/api/spectrograms/5_theo_48.png"
        string_val: "c:/Users/Fabrice/repos/MicroP/project/api/spectrograms/5_theo_49.png"
        string_val: "c:/Users/Fabrice/repos/MicroP/project/api/spectrograms/5_theo_5.png"
        string_val: "c:/Users/Fabrice/repos/MicroP/project/api/spectrograms/5_theo_6.png"
        string_val: "c:/Users/Fabrice/repos/MicroP/project/api/spectrograms/5_theo_7.png"
        string_val: "c:/Users/Fabrice/repos/MicroP/project/api/spectrograms/5_theo_8.png"
        string_val: "c:/Users/Fabrice/repos/MicroP/project/api/spectrograms/5_theo_9.png"
        string_val: "c:/Users/Fabrice/repos/MicroP/project/api/spectrograms/6_jackson_0.png"
        string_val: "c:/Users/Fabrice/repos/MicroP/project/api/spectrograms/6_jackson_1.png"
        string_val: "c:/Users/Fabrice/repos/MicroP/project/api/spectrograms/6_jackson_10.png"
        string_val: "c:/Users/Fabrice/repos/MicroP/project/api/spectrograms/6_jackson_11.png"
        string_val: "c:/Users/Fabrice/repos/MicroP/project/api/spectrograms/6_jackson_12.png"
        string_val: "c:/Users/Fabrice/repos/MicroP/project/api/spectrograms/6_jackson_13.png"
        string_val: "c:/Users/Fabrice/repos/MicroP/project/api/spectrograms/6_jackson_14.png"
        string_val: "c:/Users/Fabrice/repos/MicroP/project/api/spectrograms/6_jackson_15.png"
        string_val: "c:/Users/Fabrice/repos/MicroP/project/api/spectrograms/6_jackson_16.png"
        string_val: "c:/Users/Fabrice/repos/MicroP/project/api/spectrograms/6_jackson_17.png"
        string_val: "c:/Users/Fabrice/repos/MicroP/project/api/spectrograms/6_jackson_18.png"
        string_val: "c:/Users/Fabrice/repos/MicroP/project/api/spectrograms/6_jackson_19.png"
        string_val: "c:/Users/Fabrice/repos/MicroP/project/api/spectrograms/6_jackson_2.png"
        string_val: "c:/Users/Fabrice/repos/MicroP/project/api/spectrograms/6_jackson_20.png"
        string_val: "c:/Users/Fabrice/repos/MicroP/project/api/spectrograms/6_jackson_21.png"
        string_val: "c:/Users/Fabrice/repos/MicroP/project/api/spectrograms/6_jackson_22.png"
        string_val: "c:/Users/Fabrice/repos/MicroP/project/api/spectrograms/6_jackson_23.png"
        string_val: "c:/Users/Fabrice/repos/MicroP/project/api/spectrograms/6_jackson_24.png"
        string_val: "c:/Users/Fabrice/repos/MicroP/project/api/spectrograms/6_jackson_25.png"
        string_val: "c:/Users/Fabrice/repos/MicroP/project/api/spectrograms/6_jackson_26.png"
        string_val: "c:/Users/Fabrice/repos/MicroP/project/api/spectrograms/6_jackson_27.png"
        string_val: "c:/Users/Fabrice/repos/MicroP/project/api/spectrograms/6_jackson_28.png"
        string_val: "c:/Users/Fabrice/repos/MicroP/project/api/spectrograms/6_jackson_29.png"
        string_val: "c:/Users/Fabrice/repos/MicroP/project/api/spectrograms/6_jackson_3.png"
        string_val: "c:/Users/Fabrice/repos/MicroP/project/api/spectrograms/6_jackson_30.png"
        string_val: "c:/Users/Fabrice/repos/MicroP/project/api/spectrograms/6_jackson_31.png"
        string_val: "c:/Users/Fabrice/repos/MicroP/project/api/spectrograms/6_jackson_32.png"
        string_val: "c:/Users/Fabrice/repos/MicroP/project/api/spectrograms/6_jackson_33.png"
        string_val: "c:/Users/Fabrice/repos/MicroP/project/api/spectrograms/6_jackson_34.png"
        string_val: "c:/Users/Fabrice/repos/MicroP/project/api/spectrograms/6_jackson_35.png"
        string_val: "c:/Users/Fabrice/repos/MicroP/project/api/spectrograms/6_jackson_36.png"
        string_val: "c:/Users/Fabrice/repos/MicroP/project/api/spectrograms/6_jackson_37.png"
        string_val: "c:/Users/Fabrice/repos/MicroP/project/api/spectrograms/6_jackson_38.png"
        string_val: "c:/Users/Fabrice/repos/MicroP/project/api/spectrograms/6_jackson_39.png"
        string_val: "c:/Users/Fabrice/repos/MicroP/project/api/spectrograms/6_jackson_4.png"
        string_val: "c:/Users/Fabrice/repos/MicroP/project/api/spectrograms/6_jackson_40.png"
        string_val: "c:/Users/Fabrice/repos/MicroP/project/api/spectrograms/6_jackson_41.png"
        string_val: "c:/Users/Fabrice/repos/MicroP/project/api/spectrograms/6_jackson_42.png"
        string_val: "c:/Users/Fabrice/repos/MicroP/project/api/spectrograms/6_jackson_43.png"
        string_val: "c:/Users/Fabrice/repos/MicroP/project/api/spectrograms/6_jackson_44.png"
        string_val: "c:/Users/Fabrice/repos/MicroP/project/api/spectrograms/6_jackson_45.png"
        string_val: "c:/Users/Fabrice/repos/MicroP/project/api/spectrograms/6_jackson_46.png"
        string_val: "c:/Users/Fabrice/repos/MicroP/project/api/spectrograms/6_jackson_47.png"
        string_val: "c:/Users/Fabrice/repos/MicroP/project/api/spectrograms/6_jackson_48.png"
        string_val: "c:/Users/Fabrice/repos/MicroP/project/api/spectrograms/6_jackson_49.png"
        string_val: "c:/Users/Fabrice/repos/MicroP/project/api/spectrograms/6_jackson_5.png"
        string_val: "c:/Users/Fabrice/repos/MicroP/project/api/spectrograms/6_jackson_6.png"
        string_val: "c:/Users/Fabrice/repos/MicroP/project/api/spectrograms/6_jackson_7.png"
        string_val: "c:/Users/Fabrice/repos/MicroP/project/api/spectrograms/6_jackson_8.png"
        string_val: "c:/Users/Fabrice/repos/MicroP/project/api/spectrograms/6_jackson_9.png"
        string_val: "c:/Users/Fabrice/repos/MicroP/project/api/spectrograms/6_theo_0.png"
        string_val: "c:/Users/Fabrice/repos/MicroP/project/api/spectrograms/6_theo_1.png"
        string_val: "c:/Users/Fabrice/repos/MicroP/project/api/spectrograms/6_theo_10.png"
        string_val: "c:/Users/Fabrice/repos/MicroP/project/api/spectrograms/6_theo_11.png"
        string_val: "c:/Users/Fabrice/repos/MicroP/project/api/spectrograms/6_theo_12.png"
        string_val: "c:/Users/Fabrice/repos/MicroP/project/api/spectrograms/6_theo_13.png"
        string_val: "c:/Users/Fabrice/repos/MicroP/project/api/spectrograms/6_theo_14.png"
        string_val: "c:/Users/Fabrice/repos/MicroP/project/api/spectrograms/6_theo_15.png"
        string_val: "c:/Users/Fabrice/repos/MicroP/project/api/spectrograms/6_theo_16.png"
        string_val: "c:/Users/Fabrice/repos/MicroP/project/api/spectrograms/6_theo_17.png"
        string_val: "c:/Users/Fabrice/repos/MicroP/project/api/spectrograms/6_theo_18.png"
        string_val: "c:/Users/Fabrice/repos/MicroP/project/api/spectrograms/6_theo_19.png"
        string_val: "c:/Users/Fabrice/repos/MicroP/project/api/spectrograms/6_theo_2.png"
        string_val: "c:/Users/Fabrice/repos/MicroP/project/api/spectrograms/6_theo_20.png"
        string_val: "c:/Users/Fabrice/repos/MicroP/project/api/spectrograms/6_theo_21.png"
        string_val: "c:/Users/Fabrice/repos/MicroP/project/api/spectrograms/6_theo_22.png"
        string_val: "c:/Users/Fabrice/repos/MicroP/project/api/spectrograms/6_theo_23.png"
        string_val: "c:/Users/Fabrice/repos/MicroP/project/api/spectrograms/6_theo_24.png"
        string_val: "c:/Users/Fabrice/repos/MicroP/project/api/spectrograms/6_theo_25.png"
        string_val: "c:/Users/Fabrice/repos/MicroP/project/api/spectrograms/6_theo_26.png"
        string_val: "c:/Users/Fabrice/repos/MicroP/project/api/spectrograms/6_theo_27.png"
        string_val: "c:/Users/Fabrice/repos/MicroP/project/api/spectrograms/6_theo_28.png"
        string_val: "c:/Users/Fabrice/repos/MicroP/project/api/spectrograms/6_theo_29.png"
        string_val: "c:/Users/Fabrice/repos/MicroP/project/api/spectrograms/6_theo_3.png"
        string_val: "c:/Users/Fabrice/repos/MicroP/project/api/spectrograms/6_theo_30.png"
        string_val: "c:/Users/Fabrice/repos/MicroP/project/api/spectrograms/6_theo_31.png"
        string_val: "c:/Users/Fabrice/repos/MicroP/project/api/spectrograms/6_theo_32.png"
        string_val: "c:/Users/Fabrice/repos/MicroP/project/api/spectrograms/6_theo_33.png"
        string_val: "c:/Users/Fabrice/repos/MicroP/project/api/spectrograms/6_theo_34.png"
        string_val: "c:/Users/Fabrice/repos/MicroP/project/api/spectrograms/6_theo_35.png"
        string_val: "c:/Users/Fabrice/repos/MicroP/project/api/spectrograms/6_theo_36.png"
        string_val: "c:/Users/Fabrice/repos/MicroP/project/api/spectrograms/6_theo_37.png"
        string_val: "c:/Users/Fabrice/repos/MicroP/project/api/spectrograms/6_theo_38.png"
        string_val: "c:/Users/Fabrice/repos/MicroP/project/api/spectrograms/6_theo_39.png"
        string_val: "c:/Users/Fabrice/repos/MicroP/project/api/spectrograms/6_theo_4.png"
        string_val: "c:/Users/Fabrice/repos/MicroP/project/api/spectrograms/6_theo_40.png"
        string_val: "c:/Users/Fabrice/repos/MicroP/project/api/spectrograms/6_theo_41.png"
        string_val: "c:/Users/Fabrice/repos/MicroP/project/api/spectrograms/6_theo_42.png"
        string_val: "c:/Users/Fabrice/repos/MicroP/project/api/spectrograms/6_theo_43.png"
        string_val: "c:/Users/Fabrice/repos/MicroP/project/api/spectrograms/6_theo_44.png"
        string_val: "c:/Users/Fabrice/repos/MicroP/project/api/spectrograms/6_theo_45.png"
        string_val: "c:/Users/Fabrice/repos/MicroP/project/api/spectrograms/6_theo_46.png"
        string_val: "c:/Users/Fabrice/repos/MicroP/project/api/spectrograms/6_theo_47.png"
        string_val: "c:/Users/Fabrice/repos/MicroP/project/api/spectrograms/6_theo_48.png"
        string_val: "c:/Users/Fabrice/repos/MicroP/project/api/spectrograms/6_theo_49.png"
        string_val: "c:/Users/Fabrice/repos/MicroP/project/api/spectrograms/6_theo_5.png"
        string_val: "c:/Users/Fabrice/repos/MicroP/project/api/spectrograms/6_theo_6.png"
        string_val: "c:/Users/Fabrice/repos/MicroP/project/api/spectrograms/6_theo_7.png"
        string_val: "c:/Users/Fabrice/repos/MicroP/project/api/spectrograms/6_theo_8.png"
        string_val: "c:/Users/Fabrice/repos/MicroP/project/api/spectrograms/6_theo_9.png"
        string_val: "c:/Users/Fabrice/repos/MicroP/project/api/spectrograms/7_jackson_0.png"
        string_val: "c:/Users/Fabrice/repos/MicroP/project/api/spectrograms/7_jackson_1.png"
        string_val: "c:/Users/Fabrice/repos/MicroP/project/api/spectrograms/7_jackson_10.png"
        string_val: "c:/Users/Fabrice/repos/MicroP/project/api/spectrograms/7_jackson_11.png"
        string_val: "c:/Users/Fabrice/repos/MicroP/project/api/spectrograms/7_jackson_12.png"
        string_val: "c:/Users/Fabrice/repos/MicroP/project/api/spectrograms/7_jackson_13.png"
        string_val: "c:/Users/Fabrice/repos/MicroP/project/api/spectrograms/7_jackson_14.png"
        string_val: "c:/Users/Fabrice/repos/MicroP/project/api/spectrograms/7_jackson_15.png"
        string_val: "c:/Users/Fabrice/repos/MicroP/project/api/spectrograms/7_jackson_16.png"
        string_val: "c:/Users/Fabrice/repos/MicroP/project/api/spectrograms/7_jackson_17.png"
        string_val: "c:/Users/Fabrice/repos/MicroP/project/api/spectrograms/7_jackson_18.png"
        string_val: "c:/Users/Fabrice/repos/MicroP/project/api/spectrograms/7_jackson_19.png"
        string_val: "c:/Users/Fabrice/repos/MicroP/project/api/spectrograms/7_jackson_2.png"
        string_val: "c:/Users/Fabrice/repos/MicroP/project/api/spectrograms/7_jackson_20.png"
        string_val: "c:/Users/Fabrice/repos/MicroP/project/api/spectrograms/7_jackson_21.png"
        string_val: "c:/Users/Fabrice/repos/MicroP/project/api/spectrograms/7_jackson_22.png"
        string_val: "c:/Users/Fabrice/repos/MicroP/project/api/spectrograms/7_jackson_23.png"
        string_val: "c:/Users/Fabrice/repos/MicroP/project/api/spectrograms/7_jackson_24.png"
        string_val: "c:/Users/Fabrice/repos/MicroP/project/api/spectrograms/7_jackson_25.png"
        string_val: "c:/Users/Fabrice/repos/MicroP/project/api/spectrograms/7_jackson_26.png"
        string_val: "c:/Users/Fabrice/repos/MicroP/project/api/spectrograms/7_jackson_27.png"
        string_val: "c:/Users/Fabrice/repos/MicroP/project/api/spectrograms/7_jackson_28.png"
        string_val: "c:/Users/Fabrice/repos/MicroP/project/api/spectrograms/7_jackson_29.png"
        string_val: "c:/Users/Fabrice/repos/MicroP/project/api/spectrograms/7_jackson_3.png"
        string_val: "c:/Users/Fabrice/repos/MicroP/project/api/spectrograms/7_jackson_30.png"
        string_val: "c:/Users/Fabrice/repos/MicroP/project/api/spectrograms/7_jackson_31.png"
        string_val: "c:/Users/Fabrice/repos/MicroP/project/api/spectrograms/7_jackson_32.png"
        string_val: "c:/Users/Fabrice/repos/MicroP/project/api/spectrograms/7_jackson_33.png"
        string_val: "c:/Users/Fabrice/repos/MicroP/project/api/spectrograms/7_jackson_34.png"
        string_val: "c:/Users/Fabrice/repos/MicroP/project/api/spectrograms/7_jackson_35.png"
        string_val: "c:/Users/Fabrice/repos/MicroP/project/api/spectrograms/7_jackson_36.png"
        string_val: "c:/Users/Fabrice/repos/MicroP/project/api/spectrograms/7_jackson_37.png"
        string_val: "c:/Users/Fabrice/repos/MicroP/project/api/spectrograms/7_jackson_38.png"
        string_val: "c:/Users/Fabrice/repos/MicroP/project/api/spectrograms/7_jackson_39.png"
        string_val: "c:/Users/Fabrice/repos/MicroP/project/api/spectrograms/7_jackson_4.png"
        string_val: "c:/Users/Fabrice/repos/MicroP/project/api/spectrograms/7_jackson_40.png"
        string_val: "c:/Users/Fabrice/repos/MicroP/project/api/spectrograms/7_jackson_41.png"
        string_val: "c:/Users/Fabrice/repos/MicroP/project/api/spectrograms/7_jackson_42.png"
        string_val: "c:/Users/Fabrice/repos/MicroP/project/api/spectrograms/7_jackson_43.png"
        string_val: "c:/Users/Fabrice/repos/MicroP/project/api/spectrograms/7_jackson_44.png"
        string_val: "c:/Users/Fabrice/repos/MicroP/project/api/spectrograms/7_jackson_45.png"
        string_val: "c:/Users/Fabrice/repos/MicroP/project/api/spectrograms/7_jackson_46.png"
        string_val: "c:/Users/Fabrice/repos/MicroP/project/api/spectrograms/7_jackson_47.png"
        string_val: "c:/Users/Fabrice/repos/MicroP/project/api/spectrograms/7_jackson_48.png"
        string_val: "c:/Users/Fabrice/repos/MicroP/project/api/spectrograms/7_jackson_49.png"
        string_val: "c:/Users/Fabrice/repos/MicroP/project/api/spectrograms/7_jackson_5.png"
        string_val: "c:/Users/Fabrice/repos/MicroP/project/api/spectrograms/7_jackson_6.png"
        string_val: "c:/Users/Fabrice/repos/MicroP/project/api/spectrograms/7_jackson_7.png"
        string_val: "c:/Users/Fabrice/repos/MicroP/project/api/spectrograms/7_jackson_8.png"
        string_val: "c:/Users/Fabrice/repos/MicroP/project/api/spectrograms/7_jackson_9.png"
        string_val: "c:/Users/Fabrice/repos/MicroP/project/api/spectrograms/7_theo_0.png"
        string_val: "c:/Users/Fabrice/repos/MicroP/project/api/spectrograms/7_theo_1.png"
        string_val: "c:/Users/Fabrice/repos/MicroP/project/api/spectrograms/7_theo_10.png"
        string_val: "c:/Users/Fabrice/repos/MicroP/project/api/spectrograms/7_theo_11.png"
        string_val: "c:/Users/Fabrice/repos/MicroP/project/api/spectrograms/7_theo_12.png"
        string_val: "c:/Users/Fabrice/repos/MicroP/project/api/spectrograms/7_theo_13.png"
        string_val: "c:/Users/Fabrice/repos/MicroP/project/api/spectrograms/7_theo_14.png"
        string_val: "c:/Users/Fabrice/repos/MicroP/project/api/spectrograms/7_theo_15.png"
        string_val: "c:/Users/Fabrice/repos/MicroP/project/api/spectrograms/7_theo_16.png"
        string_val: "c:/Users/Fabrice/repos/MicroP/project/api/spectrograms/7_theo_17.png"
        string_val: "c:/Users/Fabrice/repos/MicroP/project/api/spectrograms/7_theo_18.png"
        string_val: "c:/Users/Fabrice/repos/MicroP/project/api/spectrograms/7_theo_19.png"
        string_val: "c:/Users/Fabrice/repos/MicroP/project/api/spectrograms/7_theo_2.png"
        string_val: "c:/Users/Fabrice/repos/MicroP/project/api/spectrograms/7_theo_20.png"
        string_val: "c:/Users/Fabrice/repos/MicroP/project/api/spectrograms/7_theo_21.png"
        string_val: "c:/Users/Fabrice/repos/MicroP/project/api/spectrograms/7_theo_22.png"
        string_val: "c:/Users/Fabrice/repos/MicroP/project/api/spectrograms/7_theo_23.png"
        string_val: "c:/Users/Fabrice/repos/MicroP/project/api/spectrograms/7_theo_24.png"
        string_val: "c:/Users/Fabrice/repos/MicroP/project/api/spectrograms/7_theo_25.png"
        string_val: "c:/Users/Fabrice/repos/MicroP/project/api/spectrograms/7_theo_26.png"
        string_val: "c:/Users/Fabrice/repos/MicroP/project/api/spectrograms/7_theo_27.png"
        string_val: "c:/Users/Fabrice/repos/MicroP/project/api/spectrograms/7_theo_28.png"
        string_val: "c:/Users/Fabrice/repos/MicroP/project/api/spectrograms/7_theo_29.png"
        string_val: "c:/Users/Fabrice/repos/MicroP/project/api/spectrograms/7_theo_3.png"
        string_val: "c:/Users/Fabrice/repos/MicroP/project/api/spectrograms/7_theo_30.png"
        string_val: "c:/Users/Fabrice/repos/MicroP/project/api/spectrograms/7_theo_31.png"
        string_val: "c:/Users/Fabrice/repos/MicroP/project/api/spectrograms/7_theo_32.png"
        string_val: "c:/Users/Fabrice/repos/MicroP/project/api/spectrograms/7_theo_33.png"
        string_val: "c:/Users/Fabrice/repos/MicroP/project/api/spectrograms/7_theo_34.png"
        string_val: "c:/Users/Fabrice/repos/MicroP/project/api/spectrograms/7_theo_35.png"
        string_val: "c:/Users/Fabrice/repos/MicroP/project/api/spectrograms/7_theo_36.png"
        string_val: "c:/Users/Fabrice/repos/MicroP/project/api/spectrograms/7_theo_37.png"
        string_val: "c:/Users/Fabrice/repos/MicroP/project/api/spectrograms/7_theo_38.png"
        string_val: "c:/Users/Fabrice/repos/MicroP/project/api/spectrograms/7_theo_39.png"
        string_val: "c:/Users/Fabrice/repos/MicroP/project/api/spectrograms/7_theo_4.png"
        string_val: "c:/Users/Fabrice/repos/MicroP/project/api/spectrograms/7_theo_40.png"
        string_val: "c:/Users/Fabrice/repos/MicroP/project/api/spectrograms/7_theo_41.png"
        string_val: "c:/Users/Fabrice/repos/MicroP/project/api/spectrograms/7_theo_42.png"
        string_val: "c:/Users/Fabrice/repos/MicroP/project/api/spectrograms/7_theo_43.png"
        string_val: "c:/Users/Fabrice/repos/MicroP/project/api/spectrograms/7_theo_44.png"
        string_val: "c:/Users/Fabrice/repos/MicroP/project/api/spectrograms/7_theo_45.png"
        string_val: "c:/Users/Fabrice/repos/MicroP/project/api/spectrograms/7_theo_46.png"
        string_val: "c:/Users/Fabrice/repos/MicroP/project/api/spectrograms/7_theo_47.png"
        string_val: "c:/Users/Fabrice/repos/MicroP/project/api/spectrograms/7_theo_48.png"
        string_val: "c:/Users/Fabrice/repos/MicroP/project/api/spectrograms/7_theo_49.png"
        string_val: "c:/Users/Fabrice/repos/MicroP/project/api/spectrograms/7_theo_5.png"
        string_val: "c:/Users/Fabrice/repos/MicroP/project/api/spectrograms/7_theo_6.png"
        string_val: "c:/Users/Fabrice/repos/MicroP/project/api/spectrograms/7_theo_7.png"
        string_val: "c:/Users/Fabrice/repos/MicroP/project/api/spectrograms/7_theo_8.png"
        string_val: "c:/Users/Fabrice/repos/MicroP/project/api/spectrograms/7_theo_9.png"
        string_val: "c:/Users/Fabrice/repos/MicroP/project/api/spectrograms/8_jackson_0.png"
        string_val: "c:/Users/Fabrice/repos/MicroP/project/api/spectrograms/8_jackson_1.png"
        string_val: "c:/Users/Fabrice/repos/MicroP/project/api/spectrograms/8_jackson_10.png"
        string_val: "c:/Users/Fabrice/repos/MicroP/project/api/spectrograms/8_jackson_11.png"
        string_val: "c:/Users/Fabrice/repos/MicroP/project/api/spectrograms/8_jackson_12.png"
        string_val: "c:/Users/Fabrice/repos/MicroP/project/api/spectrograms/8_jackson_13.png"
        string_val: "c:/Users/Fabrice/repos/MicroP/project/api/spectrograms/8_jackson_14.png"
        string_val: "c:/Users/Fabrice/repos/MicroP/project/api/spectrograms/8_jackson_15.png"
        string_val: "c:/Users/Fabrice/repos/MicroP/project/api/spectrograms/8_jackson_16.png"
        string_val: "c:/Users/Fabrice/repos/MicroP/project/api/spectrograms/8_jackson_17.png"
        string_val: "c:/Users/Fabrice/repos/MicroP/project/api/spectrograms/8_jackson_18.png"
        string_val: "c:/Users/Fabrice/repos/MicroP/project/api/spectrograms/8_jackson_19.png"
        string_val: "c:/Users/Fabrice/repos/MicroP/project/api/spectrograms/8_jackson_2.png"
        string_val: "c:/Users/Fabrice/repos/MicroP/project/api/spectrograms/8_jackson_20.png"
        string_val: "c:/Users/Fabrice/repos/MicroP/project/api/spectrograms/8_jackson_21.png"
        string_val: "c:/Users/Fabrice/repos/MicroP/project/api/spectrograms/8_jackson_22.png"
        string_val: "c:/Users/Fabrice/repos/MicroP/project/api/spectrograms/8_jackson_23.png"
        string_val: "c:/Users/Fabrice/repos/MicroP/project/api/spectrograms/8_jackson_24.png"
        string_val: "c:/Users/Fabrice/repos/MicroP/project/api/spectrograms/8_jackson_25.png"
        string_val: "c:/Users/Fabrice/repos/MicroP/project/api/spectrograms/8_jackson_26.png"
        string_val: "c:/Users/Fabrice/repos/MicroP/project/api/spectrograms/8_jackson_27.png"
        string_val: "c:/Users/Fabrice/repos/MicroP/project/api/spectrograms/8_jackson_28.png"
        string_val: "c:/Users/Fabrice/repos/MicroP/project/api/spectrograms/8_jackson_29.png"
        string_val: "c:/Users/Fabrice/repos/MicroP/project/api/spectrograms/8_jackson_3.png"
        string_val: "c:/Users/Fabrice/repos/MicroP/project/api/spectrograms/8_jackson_30.png"
        string_val: "c:/Users/Fabrice/repos/MicroP/project/api/spectrograms/8_jackson_31.png"
        string_val: "c:/Users/Fabrice/repos/MicroP/project/api/spectrograms/8_jackson_32.png"
        string_val: "c:/Users/Fabrice/repos/MicroP/project/api/spectrograms/8_jackson_33.png"
        string_val: "c:/Users/Fabrice/repos/MicroP/project/api/spectrograms/8_jackson_34.png"
        string_val: "c:/Users/Fabrice/repos/MicroP/project/api/spectrograms/8_jackson_35.png"
        string_val: "c:/Users/Fabrice/repos/MicroP/project/api/spectrograms/8_jackson_36.png"
        string_val: "c:/Users/Fabrice/repos/MicroP/project/api/spectrograms/8_jackson_37.png"
        string_val: "c:/Users/Fabrice/repos/MicroP/project/api/spectrograms/8_jackson_38.png"
        string_val: "c:/Users/Fabrice/repos/MicroP/project/api/spectrograms/8_jackson_39.png"
        string_val: "c:/Users/Fabrice/repos/MicroP/project/api/spectrograms/8_jackson_4.png"
        string_val: "c:/Users/Fabrice/repos/MicroP/project/api/spectrograms/8_jackson_40.png"
        string_val: "c:/Users/Fabrice/repos/MicroP/project/api/spectrograms/8_jackson_41.png"
        string_val: "c:/Users/Fabrice/repos/MicroP/project/api/spectrograms/8_jackson_42.png"
        string_val: "c:/Users/Fabrice/repos/MicroP/project/api/spectrograms/8_jackson_43.png"
        string_val: "c:/Users/Fabrice/repos/MicroP/project/api/spectrograms/8_jackson_44.png"
        string_val: "c:/Users/Fabrice/repos/MicroP/project/api/spectrograms/8_jackson_45.png"
        string_val: "c:/Users/Fabrice/repos/MicroP/project/api/spectrograms/8_jackson_46.png"
        string_val: "c:/Users/Fabrice/repos/MicroP/project/api/spectrograms/8_jackson_47.png"
        string_val: "c:/Users/Fabrice/repos/MicroP/project/api/spectrograms/8_jackson_48.png"
        string_val: "c:/Users/Fabrice/repos/MicroP/project/api/spectrograms/8_jackson_49.png"
        string_val: "c:/Users/Fabrice/repos/MicroP/project/api/spectrograms/8_jackson_5.png"
        string_val: "c:/Users/Fabrice/repos/MicroP/project/api/spectrograms/8_jackson_6.png"
        string_val: "c:/Users/Fabrice/repos/MicroP/project/api/spectrograms/8_jackson_7.png"
        string_val: "c:/Users/Fabrice/repos/MicroP/project/api/spectrograms/8_jackson_8.png"
        string_val: "c:/Users/Fabrice/repos/MicroP/project/api/spectrograms/8_jackson_9.png"
        string_val: "c:/Users/Fabrice/repos/MicroP/project/api/spectrograms/8_theo_0.png"
        string_val: "c:/Users/Fabrice/repos/MicroP/project/api/spectrograms/8_theo_1.png"
        string_val: "c:/Users/Fabrice/repos/MicroP/project/api/spectrograms/8_theo_10.png"
        string_val: "c:/Users/Fabrice/repos/MicroP/project/api/spectrograms/8_theo_11.png"
        string_val: "c:/Users/Fabrice/repos/MicroP/project/api/spectrograms/8_theo_12.png"
        string_val: "c:/Users/Fabrice/repos/MicroP/project/api/spectrograms/8_theo_13.png"
        string_val: "c:/Users/Fabrice/repos/MicroP/project/api/spectrograms/8_theo_14.png"
        string_val: "c:/Users/Fabrice/repos/MicroP/project/api/spectrograms/8_theo_15.png"
        string_val: "c:/Users/Fabrice/repos/MicroP/project/api/spectrograms/8_theo_16.png"
        string_val: "c:/Users/Fabrice/repos/MicroP/project/api/spectrograms/8_theo_17.png"
        string_val: "c:/Users/Fabrice/repos/MicroP/project/api/spectrograms/8_theo_18.png"
        string_val: "c:/Users/Fabrice/repos/MicroP/project/api/spectrograms/8_theo_19.png"
        string_val: "c:/Users/Fabrice/repos/MicroP/project/api/spectrograms/8_theo_2.png"
        string_val: "c:/Users/Fabrice/repos/MicroP/project/api/spectrograms/8_theo_20.png"
        string_val: "c:/Users/Fabrice/repos/MicroP/project/api/spectrograms/8_theo_21.png"
        string_val: "c:/Users/Fabrice/repos/MicroP/project/api/spectrograms/8_theo_22.png"
        string_val: "c:/Users/Fabrice/repos/MicroP/project/api/spectrograms/8_theo_23.png"
        string_val: "c:/Users/Fabrice/repos/MicroP/project/api/spectrograms/8_theo_24.png"
        string_val: "c:/Users/Fabrice/repos/MicroP/project/api/spectrograms/8_theo_25.png"
        string_val: "c:/Users/Fabrice/repos/MicroP/project/api/spectrograms/8_theo_26.png"
        string_val: "c:/Users/Fabrice/repos/MicroP/project/api/spectrograms/8_theo_27.png"
        string_val: "c:/Users/Fabrice/repos/MicroP/project/api/spectrograms/8_theo_28.png"
        string_val: "c:/Users/Fabrice/repos/MicroP/project/api/spectrograms/8_theo_29.png"
        string_val: "c:/Users/Fabrice/repos/MicroP/project/api/spectrograms/8_theo_3.png"
        string_val: "c:/Users/Fabrice/repos/MicroP/project/api/spectrograms/8_theo_30.png"
        string_val: "c:/Users/Fabrice/repos/MicroP/project/api/spectrograms/8_theo_31.png"
        string_val: "c:/Users/Fabrice/repos/MicroP/project/api/spectrograms/8_theo_32.png"
        string_val: "c:/Users/Fabrice/repos/MicroP/project/api/spectrograms/8_theo_33.png"
        string_val: "c:/Users/Fabrice/repos/MicroP/project/api/spectrograms/8_theo_34.png"
        string_val: "c:/Users/Fabrice/repos/MicroP/project/api/spectrograms/8_theo_35.png"
        string_val: "c:/Users/Fabrice/repos/MicroP/project/api/spectrograms/8_theo_36.png"
        string_val: "c:/Users/Fabrice/repos/MicroP/project/api/spectrograms/8_theo_37.png"
        string_val: "c:/Users/Fabrice/repos/MicroP/project/api/spectrograms/8_theo_38.png"
        string_val: "c:/Users/Fabrice/repos/MicroP/project/api/spectrograms/8_theo_39.png"
        string_val: "c:/Users/Fabrice/repos/MicroP/project/api/spectrograms/8_theo_4.png"
        string_val: "c:/Users/Fabrice/repos/MicroP/project/api/spectrograms/8_theo_40.png"
        string_val: "c:/Users/Fabrice/repos/MicroP/project/api/spectrograms/8_theo_41.png"
        string_val: "c:/Users/Fabrice/repos/MicroP/project/api/spectrograms/8_theo_42.png"
        string_val: "c:/Users/Fabrice/repos/MicroP/project/api/spectrograms/8_theo_43.png"
        string_val: "c:/Users/Fabrice/repos/MicroP/project/api/spectrograms/8_theo_44.png"
        string_val: "c:/Users/Fabrice/repos/MicroP/project/api/spectrograms/8_theo_45.png"
        string_val: "c:/Users/Fabrice/repos/MicroP/project/api/spectrograms/8_theo_46.png"
        string_val: "c:/Users/Fabrice/repos/MicroP/project/api/spectrograms/8_theo_47.png"
        string_val: "c:/Users/Fabrice/repos/MicroP/project/api/spectrograms/8_theo_48.png"
        string_val: "c:/Users/Fabrice/repos/MicroP/project/api/spectrograms/8_theo_49.png"
        string_val: "c:/Users/Fabrice/repos/MicroP/project/api/spectrograms/8_theo_5.png"
        string_val: "c:/Users/Fabrice/repos/MicroP/project/api/spectrograms/8_theo_6.png"
        string_val: "c:/Users/Fabrice/repos/MicroP/project/api/spectrograms/8_theo_7.png"
        string_val: "c:/Users/Fabrice/repos/MicroP/project/api/spectrograms/8_theo_8.png"
        string_val: "c:/Users/Fabrice/repos/MicroP/project/api/spectrograms/8_theo_9.png"
        string_val: "c:/Users/Fabrice/repos/MicroP/project/api/spectrograms/9_jackson_0.png"
        string_val: "c:/Users/Fabrice/repos/MicroP/project/api/spectrograms/9_jackson_1.png"
        string_val: "c:/Users/Fabrice/repos/MicroP/project/api/spectrograms/9_jackson_10.png"
        string_val: "c:/Users/Fabrice/repos/MicroP/project/api/spectrograms/9_jackson_11.png"
        string_val: "c:/Users/Fabrice/repos/MicroP/project/api/spectrograms/9_jackson_12.png"
        string_val: "c:/Users/Fabrice/repos/MicroP/project/api/spectrograms/9_jackson_13.png"
        string_val: "c:/Users/Fabrice/repos/MicroP/project/api/spectrograms/9_jackson_14.png"
        string_val: "c:/Users/Fabrice/repos/MicroP/project/api/spectrograms/9_jackson_15.png"
        string_val: "c:/Users/Fabrice/repos/MicroP/project/api/spectrograms/9_jackson_16.png"
        string_val: "c:/Users/Fabrice/repos/MicroP/project/api/spectrograms/9_jackson_17.png"
        string_val: "c:/Users/Fabrice/repos/MicroP/project/api/spectrograms/9_jackson_18.png"
        string_val: "c:/Users/Fabrice/repos/MicroP/project/api/spectrograms/9_jackson_19.png"
        string_val: "c:/Users/Fabrice/repos/MicroP/project/api/spectrograms/9_jackson_2.png"
        string_val: "c:/Users/Fabrice/repos/MicroP/project/api/spectrograms/9_jackson_20.png"
        string_val: "c:/Users/Fabrice/repos/MicroP/project/api/spectrograms/9_jackson_21.png"
        string_val: "c:/Users/Fabrice/repos/MicroP/project/api/spectrograms/9_jackson_22.png"
        string_val: "c:/Users/Fabrice/repos/MicroP/project/api/spectrograms/9_jackson_23.png"
        string_val: "c:/Users/Fabrice/repos/MicroP/project/api/spectrograms/9_jackson_24.png"
        string_val: "c:/Users/Fabrice/repos/MicroP/project/api/spectrograms/9_jackson_25.png"
        string_val: "c:/Users/Fabrice/repos/MicroP/project/api/spectrograms/9_jackson_26.png"
        string_val: "c:/Users/Fabrice/repos/MicroP/project/api/spectrograms/9_jackson_27.png"
        string_val: "c:/Users/Fabrice/repos/MicroP/project/api/spectrograms/9_jackson_28.png"
        string_val: "c:/Users/Fabrice/repos/MicroP/project/api/spectrograms/9_jackson_29.png"
        string_val: "c:/Users/Fabrice/repos/MicroP/project/api/spectrograms/9_jackson_3.png"
        string_val: "c:/Users/Fabrice/repos/MicroP/project/api/spectrograms/9_jackson_30.png"
        string_val: "c:/Users/Fabrice/repos/MicroP/project/api/spectrograms/9_jackson_31.png"
        string_val: "c:/Users/Fabrice/repos/MicroP/project/api/spectrograms/9_jackson_32.png"
        string_val: "c:/Users/Fabrice/repos/MicroP/project/api/spectrograms/9_jackson_33.png"
        string_val: "c:/Users/Fabrice/repos/MicroP/project/api/spectrograms/9_jackson_34.png"
        string_val: "c:/Users/Fabrice/repos/MicroP/project/api/spectrograms/9_jackson_35.png"
        string_val: "c:/Users/Fabrice/repos/MicroP/project/api/spectrograms/9_jackson_36.png"
        string_val: "c:/Users/Fabrice/repos/MicroP/project/api/spectrograms/9_jackson_37.png"
        string_val: "c:/Users/Fabrice/repos/MicroP/project/api/spectrograms/9_jackson_38.png"
        string_val: "c:/Users/Fabrice/repos/MicroP/project/api/spectrograms/9_jackson_39.png"
        string_val: "c:/Users/Fabrice/repos/MicroP/project/api/spectrograms/9_jackson_4.png"
        string_val: "c:/Users/Fabrice/repos/MicroP/project/api/spectrograms/9_jackson_40.png"
        string_val: "c:/Users/Fabrice/repos/MicroP/project/api/spectrograms/9_jackson_41.png"
        string_val: "c:/Users/Fabrice/repos/MicroP/project/api/spectrograms/9_jackson_42.png"
        string_val: "c:/Users/Fabrice/repos/MicroP/project/api/spectrograms/9_jackson_43.png"
        string_val: "c:/Users/Fabrice/repos/MicroP/project/api/spectrograms/9_jackson_44.png"
        string_val: "c:/Users/Fabrice/repos/MicroP/project/api/spectrograms/9_jackson_45.png"
        string_val: "c:/Users/Fabrice/repos/MicroP/project/api/spectrograms/9_jackson_46.png"
        string_val: "c:/Users/Fabrice/repos/MicroP/project/api/spectrograms/9_jackson_47.png"
        string_val: "c:/Users/Fabrice/repos/MicroP/project/api/spectrograms/9_jackson_48.png"
        string_val: "c:/Users/Fabrice/repos/MicroP/project/api/spectrograms/9_jackson_49.png"
        string_val: "c:/Users/Fabrice/repos/MicroP/project/api/spectrograms/9_jackson_5.png"
        string_val: "c:/Users/Fabrice/repos/MicroP/project/api/spectrograms/9_jackson_6.png"
        string_val: "c:/Users/Fabrice/repos/MicroP/project/api/spectrograms/9_jackson_7.png"
        string_val: "c:/Users/Fabrice/repos/MicroP/project/api/spectrograms/9_jackson_8.png"
        string_val: "c:/Users/Fabrice/repos/MicroP/project/api/spectrograms/9_jackson_9.png"
        string_val: "c:/Users/Fabrice/repos/MicroP/project/api/spectrograms/9_theo_0.png"
        string_val: "c:/Users/Fabrice/repos/MicroP/project/api/spectrograms/9_theo_1.png"
        string_val: "c:/Users/Fabrice/repos/MicroP/project/api/spectrograms/9_theo_10.png"
        string_val: "c:/Users/Fabrice/repos/MicroP/project/api/spectrograms/9_theo_11.png"
        string_val: "c:/Users/Fabrice/repos/MicroP/project/api/spectrograms/9_theo_12.png"
        string_val: "c:/Users/Fabrice/repos/MicroP/project/api/spectrograms/9_theo_13.png"
        string_val: "c:/Users/Fabrice/repos/MicroP/project/api/spectrograms/9_theo_14.png"
        string_val: "c:/Users/Fabrice/repos/MicroP/project/api/spectrograms/9_theo_15.png"
        string_val: "c:/Users/Fabrice/repos/MicroP/project/api/spectrograms/9_theo_16.png"
        string_val: "c:/Users/Fabrice/repos/MicroP/project/api/spectrograms/9_theo_17.png"
        string_val: "c:/Users/Fabrice/repos/MicroP/project/api/spectrograms/9_theo_18.png"
        string_val: "c:/Users/Fabrice/repos/MicroP/project/api/spectrograms/9_theo_19.png"
        string_val: "c:/Users/Fabrice/repos/MicroP/project/api/spectrograms/9_theo_2.png"
        string_val: "c:/Users/Fabrice/repos/MicroP/project/api/spectrograms/9_theo_20.png"
        string_val: "c:/Users/Fabrice/repos/MicroP/project/api/spectrograms/9_theo_21.png"
        string_val: "c:/Users/Fabrice/repos/MicroP/project/api/spectrograms/9_theo_22.png"
        string_val: "c:/Users/Fabrice/repos/MicroP/project/api/spectrograms/9_theo_23.png"
        string_val: "c:/Users/Fabrice/repos/MicroP/project/api/spectrograms/9_theo_24.png"
        string_val: "c:/Users/Fabrice/repos/MicroP/project/api/spectrograms/9_theo_25.png"
        string_val: "c:/Users/Fabrice/repos/MicroP/project/api/spectrograms/9_theo_26.png"
        string_val: "c:/Users/Fabrice/repos/MicroP/project/api/spectrograms/9_theo_27.png"
        string_val: "c:/Users/Fabrice/repos/MicroP/project/api/spectrograms/9_theo_28.png"
        string_val: "c:/Users/Fabrice/repos/MicroP/project/api/spectrograms/9_theo_29.png"
        string_val: "c:/Users/Fabrice/repos/MicroP/project/api/spectrograms/9_theo_3.png"
        string_val: "c:/Users/Fabrice/repos/MicroP/project/api/spectrograms/9_theo_30.png"
        string_val: "c:/Users/Fabrice/repos/MicroP/project/api/spectrograms/9_theo_31.png"
        string_val: "c:/Users/Fabrice/repos/MicroP/project/api/spectrograms/9_theo_32.png"
        string_val: "c:/Users/Fabrice/repos/MicroP/project/api/spectrograms/9_theo_33.png"
        string_val: "c:/Users/Fabrice/repos/MicroP/project/api/spectrograms/9_theo_34.png"
        string_val: "c:/Users/Fabrice/repos/MicroP/project/api/spectrograms/9_theo_35.png"
        string_val: "c:/Users/Fabrice/repos/MicroP/project/api/spectrograms/9_theo_36.png"
        string_val: "c:/Users/Fabrice/repos/MicroP/project/api/spectrograms/9_theo_37.png"
        string_val: "c:/Users/Fabrice/repos/MicroP/project/api/spectrograms/9_theo_38.png"
        string_val: "c:/Users/Fabrice/repos/MicroP/project/api/spectrograms/9_theo_39.png"
        string_val: "c:/Users/Fabrice/repos/MicroP/project/api/spectrograms/9_theo_4.png"
        string_val: "c:/Users/Fabrice/repos/MicroP/project/api/spectrograms/9_theo_40.png"
        string_val: "c:/Users/Fabrice/repos/MicroP/project/api/spectrograms/9_theo_41.png"
        string_val: "c:/Users/Fabrice/repos/MicroP/project/api/spectrograms/9_theo_42.png"
        string_val: "c:/Users/Fabrice/repos/MicroP/project/api/spectrograms/9_theo_43.png"
        string_val: "c:/Users/Fabrice/repos/MicroP/project/api/spectrograms/9_theo_44.png"
        string_val: "c:/Users/Fabrice/repos/MicroP/project/api/spectrograms/9_theo_45.png"
        string_val: "c:/Users/Fabrice/repos/MicroP/project/api/spectrograms/9_theo_46.png"
        string_val: "c:/Users/Fabrice/repos/MicroP/project/api/spectrograms/9_theo_47.png"
        string_val: "c:/Users/Fabrice/repos/MicroP/project/api/spectrograms/9_theo_48.png"
        string_val: "c:/Users/Fabrice/repos/MicroP/project/api/spectrograms/9_theo_49.png"
        string_val: "c:/Users/Fabrice/repos/MicroP/project/api/spectrograms/9_theo_5.png"
        string_val: "c:/Users/Fabrice/repos/MicroP/project/api/spectrograms/9_theo_6.png"
        string_val: "c:/Users/Fabrice/repos/MicroP/project/api/spectrograms/9_theo_7.png"
        string_val: "c:/Users/Fabrice/repos/MicroP/project/api/spectrograms/9_theo_8.png"
        string_val: "c:/Users/Fabrice/repos/MicroP/project/api/spectrograms/9_theo_9.png"
      }
    }
  }
}
node {
  name: "input_producer/Size"
  op: "Const"
  device: "/device:CPU:0"
  attr {
    key: "_output_shapes"
    value {
      list {
        shape {
        }
      }
    }
  }
  attr {
    key: "dtype"
    value {
      type: DT_INT32
    }
  }
  attr {
    key: "value"
    value {
      tensor {
        dtype: DT_INT32
        tensor_shape {
        }
        int_val: 1000
      }
    }
  }
}
node {
  name: "input_producer/Greater/y"
  op: "Const"
  device: "/device:CPU:0"
  attr {
    key: "_output_shapes"
    value {
      list {
        shape {
        }
      }
    }
  }
  attr {
    key: "dtype"
    value {
      type: DT_INT32
    }
  }
  attr {
    key: "value"
    value {
      tensor {
        dtype: DT_INT32
        tensor_shape {
        }
        int_val: 0
      }
    }
  }
}
node {
  name: "input_producer/Greater"
  op: "Greater"
  input: "input_producer/Size"
  input: "input_producer/Greater/y"
  device: "/device:CPU:0"
  attr {
    key: "T"
    value {
      type: DT_INT32
    }
  }
  attr {
    key: "_output_shapes"
    value {
      list {
        shape {
        }
      }
    }
  }
}
node {
  name: "input_producer/Assert/Const"
  op: "Const"
  device: "/device:CPU:0"
  attr {
    key: "_output_shapes"
    value {
      list {
        shape {
        }
      }
    }
  }
  attr {
    key: "dtype"
    value {
      type: DT_STRING
    }
  }
  attr {
    key: "value"
    value {
      tensor {
        dtype: DT_STRING
        tensor_shape {
        }
        string_val: "string_input_producer requires a non-null input tensor"
      }
    }
  }
}
node {
  name: "input_producer/Assert/Assert/data_0"
  op: "Const"
  device: "/device:CPU:0"
  attr {
    key: "_output_shapes"
    value {
      list {
        shape {
        }
      }
    }
  }
  attr {
    key: "dtype"
    value {
      type: DT_STRING
    }
  }
  attr {
    key: "value"
    value {
      tensor {
        dtype: DT_STRING
        tensor_shape {
        }
        string_val: "string_input_producer requires a non-null input tensor"
      }
    }
  }
}
node {
  name: "input_producer/Assert/Assert"
  op: "Assert"
  input: "input_producer/Greater"
  input: "input_producer/Assert/Assert/data_0"
  device: "/device:CPU:0"
  attr {
    key: "T"
    value {
      list {
        type: DT_STRING
      }
    }
  }
  attr {
    key: "summarize"
    value {
      i: 3
    }
  }
}
node {
  name: "input_producer/Identity"
  op: "Identity"
  input: "file_names"
  input: "^input_producer/Assert/Assert"
  device: "/device:CPU:0"
  attr {
    key: "T"
    value {
      type: DT_STRING
    }
  }
  attr {
    key: "_output_shapes"
    value {
      list {
        shape {
          dim {
            size: 1000
          }
        }
      }
    }
  }
}
node {
  name: "input_producer"
  op: "FIFOQueueV2"
  device: "/device:CPU:0"
  attr {
    key: "_output_shapes"
    value {
      list {
        shape {
        }
      }
    }
  }
  attr {
    key: "capacity"
    value {
      i: 32
    }
  }
  attr {
    key: "component_types"
    value {
      list {
        type: DT_STRING
      }
    }
  }
  attr {
    key: "container"
    value {
      s: ""
    }
  }
  attr {
    key: "shapes"
    value {
      list {
        shape {
        }
      }
    }
  }
  attr {
    key: "shared_name"
    value {
      s: ""
    }
  }
}
node {
  name: "input_producer/input_producer_EnqueueMany"
  op: "QueueEnqueueManyV2"
  input: "input_producer"
  input: "input_producer/Identity"
  device: "/device:CPU:0"
  attr {
    key: "Tcomponents"
    value {
      list {
        type: DT_STRING
      }
    }
  }
  attr {
    key: "timeout_ms"
    value {
      i: -1
    }
  }
}
node {
  name: "input_producer/input_producer_Close"
  op: "QueueCloseV2"
  input: "input_producer"
  device: "/device:CPU:0"
  attr {
    key: "cancel_pending_enqueues"
    value {
      b: false
    }
  }
}
node {
  name: "input_producer/input_producer_Close_1"
  op: "QueueCloseV2"
  input: "input_producer"
  device: "/device:CPU:0"
  attr {
    key: "cancel_pending_enqueues"
    value {
      b: true
    }
  }
}
node {
  name: "input_producer/input_producer_Size"
  op: "QueueSizeV2"
  input: "input_producer"
  device: "/device:CPU:0"
  attr {
    key: "_output_shapes"
    value {
      list {
        shape {
        }
      }
    }
  }
}
node {
  name: "input_producer/ToFloat"
  op: "Cast"
  input: "input_producer/input_producer_Size"
  device: "/device:CPU:0"
  attr {
    key: "DstT"
    value {
      type: DT_FLOAT
    }
  }
  attr {
    key: "SrcT"
    value {
      type: DT_INT32
    }
  }
  attr {
    key: "_output_shapes"
    value {
      list {
        shape {
        }
      }
    }
  }
}
node {
  name: "input_producer/mul/y"
  op: "Const"
  device: "/device:CPU:0"
  attr {
    key: "_output_shapes"
    value {
      list {
        shape {
        }
      }
    }
  }
  attr {
    key: "dtype"
    value {
      type: DT_FLOAT
    }
  }
  attr {
    key: "value"
    value {
      tensor {
        dtype: DT_FLOAT
        tensor_shape {
        }
        float_val: 0.03125
      }
    }
  }
}
node {
  name: "input_producer/mul"
  op: "Mul"
  input: "input_producer/ToFloat"
  input: "input_producer/mul/y"
  device: "/device:CPU:0"
  attr {
    key: "T"
    value {
      type: DT_FLOAT
    }
  }
  attr {
    key: "_output_shapes"
    value {
      list {
        shape {
        }
      }
    }
  }
}
node {
  name: "input_producer/fraction_of_32_full/tags"
  op: "Const"
  device: "/device:CPU:0"
  attr {
    key: "_output_shapes"
    value {
      list {
        shape {
        }
      }
    }
  }
  attr {
    key: "dtype"
    value {
      type: DT_STRING
    }
  }
  attr {
    key: "value"
    value {
      tensor {
        dtype: DT_STRING
        tensor_shape {
        }
        string_val: "input_producer/fraction_of_32_full"
      }
    }
  }
}
node {
  name: "input_producer/fraction_of_32_full"
  op: "ScalarSummary"
  input: "input_producer/fraction_of_32_full/tags"
  input: "input_producer/mul"
  device: "/device:CPU:0"
  attr {
    key: "T"
    value {
      type: DT_FLOAT
    }
  }
  attr {
    key: "_output_shapes"
    value {
      list {
        shape {
        }
      }
    }
  }
}
node {
  name: "image_reader/WholeFileReaderV2"
  op: "WholeFileReaderV2"
  device: "/device:CPU:0"
  attr {
    key: "_output_shapes"
    value {
      list {
        shape {
        }
      }
    }
  }
  attr {
    key: "container"
    value {
      s: ""
    }
  }
  attr {
    key: "shared_name"
    value {
      s: ""
    }
  }
}
node {
  name: "image_reader/ReaderReadV2"
  op: "ReaderReadV2"
  input: "image_reader/WholeFileReaderV2"
  input: "input_producer"
  device: "/device:CPU:0"
  attr {
    key: "_output_shapes"
    value {
      list {
        shape {
        }
        shape {
        }
      }
    }
  }
}
node {
  name: "image_reader/Const"
  op: "Const"
  device: "/device:CPU:0"
  attr {
    key: "_output_shapes"
    value {
      list {
        shape {
        }
      }
    }
  }
  attr {
    key: "dtype"
    value {
      type: DT_STRING
    }
  }
  attr {
    key: "value"
    value {
      tensor {
        dtype: DT_STRING
        tensor_shape {
        }
        string_val: "_"
      }
    }
  }
}
node {
  name: "image_reader/packed"
  op: "Pack"
  input: "image_reader/ReaderReadV2"
  device: "/device:CPU:0"
  attr {
    key: "N"
    value {
      i: 1
    }
  }
  attr {
    key: "T"
    value {
      type: DT_STRING
    }
  }
  attr {
    key: "_output_shapes"
    value {
      list {
        shape {
          dim {
            size: 1
          }
        }
      }
    }
  }
  attr {
    key: "axis"
    value {
      i: 0
    }
  }
}
node {
  name: "image_reader/StringSplit"
  op: "StringSplit"
  input: "image_reader/packed"
  input: "image_reader/Const"
  device: "/device:CPU:0"
  attr {
    key: "_output_shapes"
    value {
      list {
        shape {
          dim {
            size: -1
          }
          dim {
            size: 2
          }
        }
        shape {
          dim {
            size: -1
          }
        }
        shape {
          dim {
            size: 2
          }
        }
      }
    }
  }
  attr {
    key: "skip_empty"
    value {
      b: true
    }
  }
}
node {
  name: "image_reader/strided_slice/stack"
  op: "Const"
  device: "/device:CPU:0"
  attr {
    key: "_output_shapes"
    value {
      list {
        shape {
          dim {
            size: 1
          }
        }
      }
    }
  }
  attr {
    key: "dtype"
    value {
      type: DT_INT32
    }
  }
  attr {
    key: "value"
    value {
      tensor {
        dtype: DT_INT32
        tensor_shape {
          dim {
            size: 1
          }
        }
        int_val: 0
      }
    }
  }
}
node {
  name: "image_reader/strided_slice/stack_1"
  op: "Const"
  device: "/device:CPU:0"
  attr {
    key: "_output_shapes"
    value {
      list {
        shape {
          dim {
            size: 1
          }
        }
      }
    }
  }
  attr {
    key: "dtype"
    value {
      type: DT_INT32
    }
  }
  attr {
    key: "value"
    value {
      tensor {
        dtype: DT_INT32
        tensor_shape {
          dim {
            size: 1
          }
        }
        int_val: 1
      }
    }
  }
}
node {
  name: "image_reader/strided_slice/stack_2"
  op: "Const"
  device: "/device:CPU:0"
  attr {
    key: "_output_shapes"
    value {
      list {
        shape {
          dim {
            size: 1
          }
        }
      }
    }
  }
  attr {
    key: "dtype"
    value {
      type: DT_INT32
    }
  }
  attr {
    key: "value"
    value {
      tensor {
        dtype: DT_INT32
        tensor_shape {
          dim {
            size: 1
          }
        }
        int_val: 1
      }
    }
  }
}
node {
  name: "image_reader/strided_slice"
  op: "StridedSlice"
  input: "image_reader/StringSplit:1"
  input: "image_reader/strided_slice/stack"
  input: "image_reader/strided_slice/stack_1"
  input: "image_reader/strided_slice/stack_2"
  device: "/device:CPU:0"
  attr {
    key: "Index"
    value {
      type: DT_INT32
    }
  }
  attr {
    key: "T"
    value {
      type: DT_STRING
    }
  }
  attr {
    key: "_output_shapes"
    value {
      list {
        shape {
        }
      }
    }
  }
  attr {
    key: "begin_mask"
    value {
      i: 0
    }
  }
  attr {
    key: "ellipsis_mask"
    value {
      i: 0
    }
  }
  attr {
    key: "end_mask"
    value {
      i: 0
    }
  }
  attr {
    key: "new_axis_mask"
    value {
      i: 0
    }
  }
  attr {
    key: "shrink_axis_mask"
    value {
      i: 1
    }
  }
}
node {
  name: "image_reader/StringToNumber"
  op: "StringToNumber"
  input: "image_reader/strided_slice"
  device: "/device:CPU:0"
  attr {
    key: "_output_shapes"
    value {
      list {
        shape {
        }
      }
    }
  }
  attr {
    key: "out_type"
    value {
      type: DT_INT32
    }
  }
}
node {
  name: "image_reader/DecodePng"
  op: "DecodePng"
  input: "image_reader/ReaderReadV2:1"
  device: "/device:CPU:0"
  attr {
    key: "_output_shapes"
    value {
      list {
        shape {
          dim {
            size: -1
          }
          dim {
            size: -1
          }
          dim {
            size: -1
          }
        }
      }
    }
  }
  attr {
    key: "channels"
    value {
      i: 0
    }
  }
  attr {
    key: "dtype"
    value {
      type: DT_UINT8
    }
  }
}
node {
  name: "image_reader/Reshape/shape"
  op: "Const"
  device: "/device:CPU:0"
  attr {
    key: "_output_shapes"
    value {
      list {
        shape {
          dim {
            size: 2
          }
        }
      }
    }
  }
  attr {
    key: "dtype"
    value {
      type: DT_INT32
    }
  }
  attr {
    key: "value"
    value {
      tensor {
        dtype: DT_INT32
        tensor_shape {
          dim {
            size: 2
          }
        }
        tensor_content: "@\000\000\000@\000\000\000"
      }
    }
  }
}
node {
  name: "image_reader/Reshape"
  op: "Reshape"
  input: "image_reader/DecodePng"
  input: "image_reader/Reshape/shape"
  device: "/device:CPU:0"
  attr {
    key: "T"
    value {
      type: DT_UINT8
    }
  }
  attr {
    key: "Tshape"
    value {
      type: DT_INT32
    }
  }
  attr {
    key: "_output_shapes"
    value {
      list {
        shape {
          dim {
            size: 64
          }
          dim {
            size: 64
          }
        }
      }
    }
  }
}
node {
  name: "image_reader/ToFloat"
  op: "Cast"
  input: "image_reader/Reshape"
  device: "/device:CPU:0"
  attr {
    key: "DstT"
    value {
      type: DT_FLOAT
    }
  }
  attr {
    key: "SrcT"
    value {
      type: DT_UINT8
    }
  }
  attr {
    key: "_output_shapes"
    value {
      list {
        shape {
          dim {
            size: 64
          }
          dim {
            size: 64
          }
        }
      }
    }
  }
}
node {
  name: "shuffle_batch/Const"
  op: "Const"
  device: "/device:CPU:0"
  attr {
    key: "_output_shapes"
    value {
      list {
        shape {
        }
      }
    }
  }
  attr {
    key: "dtype"
    value {
      type: DT_BOOL
    }
  }
  attr {
    key: "value"
    value {
      tensor {
        dtype: DT_BOOL
        tensor_shape {
        }
        bool_val: true
      }
    }
  }
}
node {
  name: "shuffle_batch/random_shuffle_queue"
  op: "RandomShuffleQueueV2"
  device: "/device:CPU:0"
  attr {
    key: "_output_shapes"
    value {
      list {
        shape {
        }
      }
    }
  }
  attr {
    key: "capacity"
    value {
      i: 500
    }
  }
  attr {
    key: "component_types"
    value {
      list {
        type: DT_FLOAT
        type: DT_INT32
      }
    }
  }
  attr {
    key: "container"
    value {
      s: ""
    }
  }
  attr {
    key: "min_after_dequeue"
    value {
      i: 200
    }
  }
  attr {
    key: "seed"
    value {
      i: 0
    }
  }
  attr {
    key: "seed2"
    value {
      i: 0
    }
  }
  attr {
    key: "shapes"
    value {
      list {
        shape {
          dim {
            size: 64
          }
          dim {
            size: 64
          }
        }
        shape {
        }
      }
    }
  }
  attr {
    key: "shared_name"
    value {
      s: ""
    }
  }
}
node {
  name: "shuffle_batch/random_shuffle_queue_enqueue"
  op: "QueueEnqueueV2"
  input: "shuffle_batch/random_shuffle_queue"
  input: "image_reader/ToFloat"
  input: "image_reader/StringToNumber"
  device: "/device:CPU:0"
  attr {
    key: "Tcomponents"
    value {
      list {
        type: DT_FLOAT
        type: DT_INT32
      }
    }
  }
  attr {
    key: "timeout_ms"
    value {
      i: -1
    }
  }
}
node {
  name: "shuffle_batch/random_shuffle_queue_Close"
  op: "QueueCloseV2"
  input: "shuffle_batch/random_shuffle_queue"
  device: "/device:CPU:0"
  attr {
    key: "cancel_pending_enqueues"
    value {
      b: false
    }
  }
}
node {
  name: "shuffle_batch/random_shuffle_queue_Close_1"
  op: "QueueCloseV2"
  input: "shuffle_batch/random_shuffle_queue"
  device: "/device:CPU:0"
  attr {
    key: "cancel_pending_enqueues"
    value {
      b: true
    }
  }
}
node {
  name: "shuffle_batch/random_shuffle_queue_Size"
  op: "QueueSizeV2"
  input: "shuffle_batch/random_shuffle_queue"
  device: "/device:CPU:0"
  attr {
    key: "_output_shapes"
    value {
      list {
        shape {
        }
      }
    }
  }
}
node {
  name: "shuffle_batch/sub/y"
  op: "Const"
  device: "/device:CPU:0"
  attr {
    key: "_output_shapes"
    value {
      list {
        shape {
        }
      }
    }
  }
  attr {
    key: "dtype"
    value {
      type: DT_INT32
    }
  }
  attr {
    key: "value"
    value {
      tensor {
        dtype: DT_INT32
        tensor_shape {
        }
        int_val: 200
      }
    }
  }
}
node {
  name: "shuffle_batch/sub"
  op: "Sub"
  input: "shuffle_batch/random_shuffle_queue_Size"
  input: "shuffle_batch/sub/y"
  device: "/device:CPU:0"
  attr {
    key: "T"
    value {
      type: DT_INT32
    }
  }
  attr {
    key: "_output_shapes"
    value {
      list {
        shape {
        }
      }
    }
  }
}
node {
  name: "shuffle_batch/Maximum/x"
  op: "Const"
  device: "/device:CPU:0"
  attr {
    key: "_output_shapes"
    value {
      list {
        shape {
        }
      }
    }
  }
  attr {
    key: "dtype"
    value {
      type: DT_INT32
    }
  }
  attr {
    key: "value"
    value {
      tensor {
        dtype: DT_INT32
        tensor_shape {
        }
        int_val: 0
      }
    }
  }
}
node {
  name: "shuffle_batch/Maximum"
  op: "Maximum"
  input: "shuffle_batch/Maximum/x"
  input: "shuffle_batch/sub"
  device: "/device:CPU:0"
  attr {
    key: "T"
    value {
      type: DT_INT32
    }
  }
  attr {
    key: "_output_shapes"
    value {
      list {
        shape {
        }
      }
    }
  }
}
node {
  name: "shuffle_batch/ToFloat"
  op: "Cast"
  input: "shuffle_batch/Maximum"
  device: "/device:CPU:0"
  attr {
    key: "DstT"
    value {
      type: DT_FLOAT
    }
  }
  attr {
    key: "SrcT"
    value {
      type: DT_INT32
    }
  }
  attr {
    key: "_output_shapes"
    value {
      list {
        shape {
        }
      }
    }
  }
}
node {
  name: "shuffle_batch/mul/y"
  op: "Const"
  device: "/device:CPU:0"
  attr {
    key: "_output_shapes"
    value {
      list {
        shape {
        }
      }
    }
  }
  attr {
    key: "dtype"
    value {
      type: DT_FLOAT
    }
  }
  attr {
    key: "value"
    value {
      tensor {
        dtype: DT_FLOAT
        tensor_shape {
        }
        float_val: 0.0033333334140479565
      }
    }
  }
}
node {
  name: "shuffle_batch/mul"
  op: "Mul"
  input: "shuffle_batch/ToFloat"
  input: "shuffle_batch/mul/y"
  device: "/device:CPU:0"
  attr {
    key: "T"
    value {
      type: DT_FLOAT
    }
  }
  attr {
    key: "_output_shapes"
    value {
      list {
        shape {
        }
      }
    }
  }
}
node {
  name: "shuffle_batch/fraction_over_200_of_300_full/tags"
  op: "Const"
  device: "/device:CPU:0"
  attr {
    key: "_output_shapes"
    value {
      list {
        shape {
        }
      }
    }
  }
  attr {
    key: "dtype"
    value {
      type: DT_STRING
    }
  }
  attr {
    key: "value"
    value {
      tensor {
        dtype: DT_STRING
        tensor_shape {
        }
        string_val: "shuffle_batch/fraction_over_200_of_300_full"
      }
    }
  }
}
node {
  name: "shuffle_batch/fraction_over_200_of_300_full"
  op: "ScalarSummary"
  input: "shuffle_batch/fraction_over_200_of_300_full/tags"
  input: "shuffle_batch/mul"
  device: "/device:CPU:0"
  attr {
    key: "T"
    value {
      type: DT_FLOAT
    }
  }
  attr {
    key: "_output_shapes"
    value {
      list {
        shape {
        }
      }
    }
  }
}
node {
  name: "shuffle_batch/n"
  op: "Const"
  device: "/device:CPU:0"
  attr {
    key: "_output_shapes"
    value {
      list {
        shape {
        }
      }
    }
  }
  attr {
    key: "dtype"
    value {
      type: DT_INT32
    }
  }
  attr {
    key: "value"
    value {
      tensor {
        dtype: DT_INT32
        tensor_shape {
        }
        int_val: 100
      }
    }
  }
}
node {
  name: "shuffle_batch"
  op: "QueueDequeueManyV2"
  input: "shuffle_batch/random_shuffle_queue"
  input: "shuffle_batch/n"
  device: "/device:CPU:0"
  attr {
    key: "_output_shapes"
    value {
      list {
        shape {
          dim {
            size: 100
          }
          dim {
            size: 64
          }
          dim {
            size: 64
          }
        }
        shape {
          dim {
            size: 100
          }
        }
      }
    }
  }
  attr {
    key: "component_types"
    value {
      list {
        type: DT_FLOAT
        type: DT_INT32
      }
    }
  }
  attr {
    key: "timeout_ms"
    value {
      i: -1
    }
  }
}
node {
  name: "Reshape/shape"
  op: "Const"
  input: "^add"
  attr {
    key: "_output_shapes"
    value {
      list {
        shape {
          dim {
            size: 4
          }
        }
      }
    }
  }
  attr {
    key: "dtype"
    value {
      type: DT_INT32
    }
  }
  attr {
    key: "value"
    value {
      tensor {
        dtype: DT_INT32
        tensor_shape {
          dim {
            size: 4
          }
        }
        tensor_content: "\377\377\377\377@\000\000\000@\000\000\000\001\000\000\000"
      }
    }
  }
}
node {
  name: "Reshape"
  op: "Reshape"
  input: "shuffle_batch"
  input: "Reshape/shape"
  attr {
    key: "T"
    value {
      type: DT_FLOAT
    }
  }
  attr {
    key: "Tshape"
    value {
      type: DT_INT32
    }
  }
  attr {
    key: "_output_shapes"
    value {
      list {
        shape {
          dim {
            size: 100
          }
          dim {
            size: 64
          }
          dim {
            size: 64
          }
          dim {
            size: 1
          }
        }
      }
    }
  }
}
node {
  name: "conv2d/kernel/Initializer/random_uniform/shape"
  op: "Const"
  attr {
    key: "_class"
    value {
      list {
        s: "loc:@conv2d/kernel"
      }
    }
  }
  attr {
    key: "_output_shapes"
    value {
      list {
        shape {
          dim {
            size: 4
          }
        }
      }
    }
  }
  attr {
    key: "dtype"
    value {
      type: DT_INT32
    }
  }
  attr {
    key: "value"
    value {
      tensor {
        dtype: DT_INT32
        tensor_shape {
          dim {
            size: 4
          }
        }
        tensor_content: "\005\000\000\000\005\000\000\000\001\000\000\000@\000\000\000"
      }
    }
  }
}
node {
  name: "conv2d/kernel/Initializer/random_uniform/min"
  op: "Const"
  attr {
    key: "_class"
    value {
      list {
        s: "loc:@conv2d/kernel"
      }
    }
  }
  attr {
    key: "_output_shapes"
    value {
      list {
        shape {
        }
      }
    }
  }
  attr {
    key: "dtype"
    value {
      type: DT_FLOAT
    }
  }
  attr {
    key: "value"
    value {
      tensor {
        dtype: DT_FLOAT
        tensor_shape {
        }
        float_val: -0.060764361172914505
      }
    }
  }
}
node {
  name: "conv2d/kernel/Initializer/random_uniform/max"
  op: "Const"
  attr {
    key: "_class"
    value {
      list {
        s: "loc:@conv2d/kernel"
      }
    }
  }
  attr {
    key: "_output_shapes"
    value {
      list {
        shape {
        }
      }
    }
  }
  attr {
    key: "dtype"
    value {
      type: DT_FLOAT
    }
  }
  attr {
    key: "value"
    value {
      tensor {
        dtype: DT_FLOAT
        tensor_shape {
        }
        float_val: 0.060764361172914505
      }
    }
  }
}
node {
  name: "conv2d/kernel/Initializer/random_uniform/RandomUniform"
  op: "RandomUniform"
  input: "conv2d/kernel/Initializer/random_uniform/shape"
  attr {
    key: "T"
    value {
      type: DT_INT32
    }
  }
  attr {
    key: "_class"
    value {
      list {
        s: "loc:@conv2d/kernel"
      }
    }
  }
  attr {
    key: "_output_shapes"
    value {
      list {
        shape {
          dim {
            size: 5
          }
          dim {
            size: 5
          }
          dim {
            size: 1
          }
          dim {
            size: 64
          }
        }
      }
    }
  }
  attr {
    key: "dtype"
    value {
      type: DT_FLOAT
    }
  }
  attr {
    key: "seed"
    value {
      i: 0
    }
  }
  attr {
    key: "seed2"
    value {
      i: 0
    }
  }
}
node {
  name: "conv2d/kernel/Initializer/random_uniform/sub"
  op: "Sub"
  input: "conv2d/kernel/Initializer/random_uniform/max"
  input: "conv2d/kernel/Initializer/random_uniform/min"
  attr {
    key: "T"
    value {
      type: DT_FLOAT
    }
  }
  attr {
    key: "_class"
    value {
      list {
        s: "loc:@conv2d/kernel"
      }
    }
  }
  attr {
    key: "_output_shapes"
    value {
      list {
        shape {
        }
      }
    }
  }
}
node {
  name: "conv2d/kernel/Initializer/random_uniform/mul"
  op: "Mul"
  input: "conv2d/kernel/Initializer/random_uniform/RandomUniform"
  input: "conv2d/kernel/Initializer/random_uniform/sub"
  attr {
    key: "T"
    value {
      type: DT_FLOAT
    }
  }
  attr {
    key: "_class"
    value {
      list {
        s: "loc:@conv2d/kernel"
      }
    }
  }
  attr {
    key: "_output_shapes"
    value {
      list {
        shape {
          dim {
            size: 5
          }
          dim {
            size: 5
          }
          dim {
            size: 1
          }
          dim {
            size: 64
          }
        }
      }
    }
  }
}
node {
  name: "conv2d/kernel/Initializer/random_uniform"
  op: "Add"
  input: "conv2d/kernel/Initializer/random_uniform/mul"
  input: "conv2d/kernel/Initializer/random_uniform/min"
  attr {
    key: "T"
    value {
      type: DT_FLOAT
    }
  }
  attr {
    key: "_class"
    value {
      list {
        s: "loc:@conv2d/kernel"
      }
    }
  }
  attr {
    key: "_output_shapes"
    value {
      list {
        shape {
          dim {
            size: 5
          }
          dim {
            size: 5
          }
          dim {
            size: 1
          }
          dim {
            size: 64
          }
        }
      }
    }
  }
}
node {
  name: "conv2d/kernel"
  op: "VariableV2"
  attr {
    key: "_class"
    value {
      list {
        s: "loc:@conv2d/kernel"
      }
    }
  }
  attr {
    key: "_output_shapes"
    value {
      list {
        shape {
          dim {
            size: 5
          }
          dim {
            size: 5
          }
          dim {
            size: 1
          }
          dim {
            size: 64
          }
        }
      }
    }
  }
  attr {
    key: "container"
    value {
      s: ""
    }
  }
  attr {
    key: "dtype"
    value {
      type: DT_FLOAT
    }
  }
  attr {
    key: "shape"
    value {
      shape {
        dim {
          size: 5
        }
        dim {
          size: 5
        }
        dim {
          size: 1
        }
        dim {
          size: 64
        }
      }
    }
  }
  attr {
    key: "shared_name"
    value {
      s: ""
    }
  }
}
node {
  name: "conv2d/kernel/Assign"
  op: "Assign"
  input: "conv2d/kernel"
  input: "conv2d/kernel/Initializer/random_uniform"
  attr {
    key: "T"
    value {
      type: DT_FLOAT
    }
  }
  attr {
    key: "_class"
    value {
      list {
        s: "loc:@conv2d/kernel"
      }
    }
  }
  attr {
    key: "_output_shapes"
    value {
      list {
        shape {
          dim {
            size: 5
          }
          dim {
            size: 5
          }
          dim {
            size: 1
          }
          dim {
            size: 64
          }
        }
      }
    }
  }
  attr {
    key: "use_locking"
    value {
      b: true
    }
  }
  attr {
    key: "validate_shape"
    value {
      b: true
    }
  }
}
node {
  name: "conv2d/kernel/read"
  op: "Identity"
  input: "conv2d/kernel"
  attr {
    key: "T"
    value {
      type: DT_FLOAT
    }
  }
  attr {
    key: "_class"
    value {
      list {
        s: "loc:@conv2d/kernel"
      }
    }
  }
  attr {
    key: "_output_shapes"
    value {
      list {
        shape {
          dim {
            size: 5
          }
          dim {
            size: 5
          }
          dim {
            size: 1
          }
          dim {
            size: 64
          }
        }
      }
    }
  }
}
node {
  name: "conv2d/bias/Initializer/zeros"
  op: "Const"
  attr {
    key: "_class"
    value {
      list {
        s: "loc:@conv2d/bias"
      }
    }
  }
  attr {
    key: "_output_shapes"
    value {
      list {
        shape {
          dim {
            size: 64
          }
        }
      }
    }
  }
  attr {
    key: "dtype"
    value {
      type: DT_FLOAT
    }
  }
  attr {
    key: "value"
    value {
      tensor {
        dtype: DT_FLOAT
        tensor_shape {
          dim {
            size: 64
          }
        }
        float_val: 0.0
      }
    }
  }
}
node {
  name: "conv2d/bias"
  op: "VariableV2"
  attr {
    key: "_class"
    value {
      list {
        s: "loc:@conv2d/bias"
      }
    }
  }
  attr {
    key: "_output_shapes"
    value {
      list {
        shape {
          dim {
            size: 64
          }
        }
      }
    }
  }
  attr {
    key: "container"
    value {
      s: ""
    }
  }
  attr {
    key: "dtype"
    value {
      type: DT_FLOAT
    }
  }
  attr {
    key: "shape"
    value {
      shape {
        dim {
          size: 64
        }
      }
    }
  }
  attr {
    key: "shared_name"
    value {
      s: ""
    }
  }
}
node {
  name: "conv2d/bias/Assign"
  op: "Assign"
  input: "conv2d/bias"
  input: "conv2d/bias/Initializer/zeros"
  attr {
    key: "T"
    value {
      type: DT_FLOAT
    }
  }
  attr {
    key: "_class"
    value {
      list {
        s: "loc:@conv2d/bias"
      }
    }
  }
  attr {
    key: "_output_shapes"
    value {
      list {
        shape {
          dim {
            size: 64
          }
        }
      }
    }
  }
  attr {
    key: "use_locking"
    value {
      b: true
    }
  }
  attr {
    key: "validate_shape"
    value {
      b: true
    }
  }
}
node {
  name: "conv2d/bias/read"
  op: "Identity"
  input: "conv2d/bias"
  attr {
    key: "T"
    value {
      type: DT_FLOAT
    }
  }
  attr {
    key: "_class"
    value {
      list {
        s: "loc:@conv2d/bias"
      }
    }
  }
  attr {
    key: "_output_shapes"
    value {
      list {
        shape {
          dim {
            size: 64
          }
        }
      }
    }
  }
}
node {
  name: "conv2d/dilation_rate"
  op: "Const"
  input: "^add"
  attr {
    key: "_output_shapes"
    value {
      list {
        shape {
          dim {
            size: 2
          }
        }
      }
    }
  }
  attr {
    key: "dtype"
    value {
      type: DT_INT32
    }
  }
  attr {
    key: "value"
    value {
      tensor {
        dtype: DT_INT32
        tensor_shape {
          dim {
            size: 2
          }
        }
        tensor_content: "\001\000\000\000\001\000\000\000"
      }
    }
  }
}
node {
  name: "conv2d/Conv2D"
  op: "Conv2D"
  input: "Reshape"
  input: "conv2d/kernel/read"
  attr {
    key: "T"
    value {
      type: DT_FLOAT
    }
  }
  attr {
    key: "_output_shapes"
    value {
      list {
        shape {
          dim {
            size: 100
          }
          dim {
            size: 64
          }
          dim {
            size: 64
          }
          dim {
            size: 64
          }
        }
      }
    }
  }
  attr {
    key: "data_format"
    value {
      s: "NHWC"
    }
  }
  attr {
    key: "padding"
    value {
      s: "SAME"
    }
  }
  attr {
    key: "strides"
    value {
      list {
        i: 1
        i: 1
        i: 1
        i: 1
      }
    }
  }
  attr {
    key: "use_cudnn_on_gpu"
    value {
      b: true
    }
  }
}
node {
  name: "conv2d/BiasAdd"
  op: "BiasAdd"
  input: "conv2d/Conv2D"
  input: "conv2d/bias/read"
  attr {
    key: "T"
    value {
      type: DT_FLOAT
    }
  }
  attr {
    key: "_output_shapes"
    value {
      list {
        shape {
          dim {
            size: 100
          }
          dim {
            size: 64
          }
          dim {
            size: 64
          }
          dim {
            size: 64
          }
        }
      }
    }
  }
  attr {
    key: "data_format"
    value {
      s: "NHWC"
    }
  }
}
node {
  name: "conv2d/Relu"
  op: "Relu"
  input: "conv2d/BiasAdd"
  attr {
    key: "T"
    value {
      type: DT_FLOAT
    }
  }
  attr {
    key: "_output_shapes"
    value {
      list {
        shape {
          dim {
            size: 100
          }
          dim {
            size: 64
          }
          dim {
            size: 64
          }
          dim {
            size: 64
          }
        }
      }
    }
  }
}
node {
  name: "max_pooling2d/MaxPool"
  op: "MaxPool"
  input: "conv2d/Relu"
  attr {
    key: "T"
    value {
      type: DT_FLOAT
    }
  }
  attr {
    key: "_output_shapes"
    value {
      list {
        shape {
          dim {
            size: 100
          }
          dim {
            size: 32
          }
          dim {
            size: 32
          }
          dim {
            size: 64
          }
        }
      }
    }
  }
  attr {
    key: "data_format"
    value {
      s: "NHWC"
    }
  }
  attr {
    key: "ksize"
    value {
      list {
        i: 1
        i: 2
        i: 2
        i: 1
      }
    }
  }
  attr {
    key: "padding"
    value {
      s: "VALID"
    }
  }
  attr {
    key: "strides"
    value {
      list {
        i: 1
        i: 2
        i: 2
        i: 1
      }
    }
  }
}
node {
  name: "conv2d_1/kernel/Initializer/random_uniform/shape"
  op: "Const"
  attr {
    key: "_class"
    value {
      list {
        s: "loc:@conv2d_1/kernel"
      }
    }
  }
  attr {
    key: "_output_shapes"
    value {
      list {
        shape {
          dim {
            size: 4
          }
        }
      }
    }
  }
  attr {
    key: "dtype"
    value {
      type: DT_INT32
    }
  }
  attr {
    key: "value"
    value {
      tensor {
        dtype: DT_INT32
        tensor_shape {
          dim {
            size: 4
          }
        }
        tensor_content: "\005\000\000\000\005\000\000\000@\000\000\000\200\000\000\000"
      }
    }
  }
}
node {
  name: "conv2d_1/kernel/Initializer/random_uniform/min"
  op: "Const"
  attr {
    key: "_class"
    value {
      list {
        s: "loc:@conv2d_1/kernel"
      }
    }
  }
  attr {
    key: "_output_shapes"
    value {
      list {
        shape {
        }
      }
    }
  }
  attr {
    key: "dtype"
    value {
      type: DT_FLOAT
    }
  }
  attr {
    key: "value"
    value {
      tensor {
        dtype: DT_FLOAT
        tensor_shape {
        }
        float_val: -0.0353553406894207
      }
    }
  }
}
node {
  name: "conv2d_1/kernel/Initializer/random_uniform/max"
  op: "Const"
  attr {
    key: "_class"
    value {
      list {
        s: "loc:@conv2d_1/kernel"
      }
    }
  }
  attr {
    key: "_output_shapes"
    value {
      list {
        shape {
        }
      }
    }
  }
  attr {
    key: "dtype"
    value {
      type: DT_FLOAT
    }
  }
  attr {
    key: "value"
    value {
      tensor {
        dtype: DT_FLOAT
        tensor_shape {
        }
        float_val: 0.0353553406894207
      }
    }
  }
}
node {
  name: "conv2d_1/kernel/Initializer/random_uniform/RandomUniform"
  op: "RandomUniform"
  input: "conv2d_1/kernel/Initializer/random_uniform/shape"
  attr {
    key: "T"
    value {
      type: DT_INT32
    }
  }
  attr {
    key: "_class"
    value {
      list {
        s: "loc:@conv2d_1/kernel"
      }
    }
  }
  attr {
    key: "_output_shapes"
    value {
      list {
        shape {
          dim {
            size: 5
          }
          dim {
            size: 5
          }
          dim {
            size: 64
          }
          dim {
            size: 128
          }
        }
      }
    }
  }
  attr {
    key: "dtype"
    value {
      type: DT_FLOAT
    }
  }
  attr {
    key: "seed"
    value {
      i: 0
    }
  }
  attr {
    key: "seed2"
    value {
      i: 0
    }
  }
}
node {
  name: "conv2d_1/kernel/Initializer/random_uniform/sub"
  op: "Sub"
  input: "conv2d_1/kernel/Initializer/random_uniform/max"
  input: "conv2d_1/kernel/Initializer/random_uniform/min"
  attr {
    key: "T"
    value {
      type: DT_FLOAT
    }
  }
  attr {
    key: "_class"
    value {
      list {
        s: "loc:@conv2d_1/kernel"
      }
    }
  }
  attr {
    key: "_output_shapes"
    value {
      list {
        shape {
        }
      }
    }
  }
}
node {
  name: "conv2d_1/kernel/Initializer/random_uniform/mul"
  op: "Mul"
  input: "conv2d_1/kernel/Initializer/random_uniform/RandomUniform"
  input: "conv2d_1/kernel/Initializer/random_uniform/sub"
  attr {
    key: "T"
    value {
      type: DT_FLOAT
    }
  }
  attr {
    key: "_class"
    value {
      list {
        s: "loc:@conv2d_1/kernel"
      }
    }
  }
  attr {
    key: "_output_shapes"
    value {
      list {
        shape {
          dim {
            size: 5
          }
          dim {
            size: 5
          }
          dim {
            size: 64
          }
          dim {
            size: 128
          }
        }
      }
    }
  }
}
node {
  name: "conv2d_1/kernel/Initializer/random_uniform"
  op: "Add"
  input: "conv2d_1/kernel/Initializer/random_uniform/mul"
  input: "conv2d_1/kernel/Initializer/random_uniform/min"
  attr {
    key: "T"
    value {
      type: DT_FLOAT
    }
  }
  attr {
    key: "_class"
    value {
      list {
        s: "loc:@conv2d_1/kernel"
      }
    }
  }
  attr {
    key: "_output_shapes"
    value {
      list {
        shape {
          dim {
            size: 5
          }
          dim {
            size: 5
          }
          dim {
            size: 64
          }
          dim {
            size: 128
          }
        }
      }
    }
  }
}
node {
  name: "conv2d_1/kernel"
  op: "VariableV2"
  attr {
    key: "_class"
    value {
      list {
        s: "loc:@conv2d_1/kernel"
      }
    }
  }
  attr {
    key: "_output_shapes"
    value {
      list {
        shape {
          dim {
            size: 5
          }
          dim {
            size: 5
          }
          dim {
            size: 64
          }
          dim {
            size: 128
          }
        }
      }
    }
  }
  attr {
    key: "container"
    value {
      s: ""
    }
  }
  attr {
    key: "dtype"
    value {
      type: DT_FLOAT
    }
  }
  attr {
    key: "shape"
    value {
      shape {
        dim {
          size: 5
        }
        dim {
          size: 5
        }
        dim {
          size: 64
        }
        dim {
          size: 128
        }
      }
    }
  }
  attr {
    key: "shared_name"
    value {
      s: ""
    }
  }
}
node {
  name: "conv2d_1/kernel/Assign"
  op: "Assign"
  input: "conv2d_1/kernel"
  input: "conv2d_1/kernel/Initializer/random_uniform"
  attr {
    key: "T"
    value {
      type: DT_FLOAT
    }
  }
  attr {
    key: "_class"
    value {
      list {
        s: "loc:@conv2d_1/kernel"
      }
    }
  }
  attr {
    key: "_output_shapes"
    value {
      list {
        shape {
          dim {
            size: 5
          }
          dim {
            size: 5
          }
          dim {
            size: 64
          }
          dim {
            size: 128
          }
        }
      }
    }
  }
  attr {
    key: "use_locking"
    value {
      b: true
    }
  }
  attr {
    key: "validate_shape"
    value {
      b: true
    }
  }
}
node {
  name: "conv2d_1/kernel/read"
  op: "Identity"
  input: "conv2d_1/kernel"
  attr {
    key: "T"
    value {
      type: DT_FLOAT
    }
  }
  attr {
    key: "_class"
    value {
      list {
        s: "loc:@conv2d_1/kernel"
      }
    }
  }
  attr {
    key: "_output_shapes"
    value {
      list {
        shape {
          dim {
            size: 5
          }
          dim {
            size: 5
          }
          dim {
            size: 64
          }
          dim {
            size: 128
          }
        }
      }
    }
  }
}
node {
  name: "conv2d_1/bias/Initializer/zeros"
  op: "Const"
  attr {
    key: "_class"
    value {
      list {
        s: "loc:@conv2d_1/bias"
      }
    }
  }
  attr {
    key: "_output_shapes"
    value {
      list {
        shape {
          dim {
            size: 128
          }
        }
      }
    }
  }
  attr {
    key: "dtype"
    value {
      type: DT_FLOAT
    }
  }
  attr {
    key: "value"
    value {
      tensor {
        dtype: DT_FLOAT
        tensor_shape {
          dim {
            size: 128
          }
        }
        float_val: 0.0
      }
    }
  }
}
node {
  name: "conv2d_1/bias"
  op: "VariableV2"
  attr {
    key: "_class"
    value {
      list {
        s: "loc:@conv2d_1/bias"
      }
    }
  }
  attr {
    key: "_output_shapes"
    value {
      list {
        shape {
          dim {
            size: 128
          }
        }
      }
    }
  }
  attr {
    key: "container"
    value {
      s: ""
    }
  }
  attr {
    key: "dtype"
    value {
      type: DT_FLOAT
    }
  }
  attr {
    key: "shape"
    value {
      shape {
        dim {
          size: 128
        }
      }
    }
  }
  attr {
    key: "shared_name"
    value {
      s: ""
    }
  }
}
node {
  name: "conv2d_1/bias/Assign"
  op: "Assign"
  input: "conv2d_1/bias"
  input: "conv2d_1/bias/Initializer/zeros"
  attr {
    key: "T"
    value {
      type: DT_FLOAT
    }
  }
  attr {
    key: "_class"
    value {
      list {
        s: "loc:@conv2d_1/bias"
      }
    }
  }
  attr {
    key: "_output_shapes"
    value {
      list {
        shape {
          dim {
            size: 128
          }
        }
      }
    }
  }
  attr {
    key: "use_locking"
    value {
      b: true
    }
  }
  attr {
    key: "validate_shape"
    value {
      b: true
    }
  }
}
node {
  name: "conv2d_1/bias/read"
  op: "Identity"
  input: "conv2d_1/bias"
  attr {
    key: "T"
    value {
      type: DT_FLOAT
    }
  }
  attr {
    key: "_class"
    value {
      list {
        s: "loc:@conv2d_1/bias"
      }
    }
  }
  attr {
    key: "_output_shapes"
    value {
      list {
        shape {
          dim {
            size: 128
          }
        }
      }
    }
  }
}
node {
  name: "conv2d_2/dilation_rate"
  op: "Const"
  input: "^add"
  attr {
    key: "_output_shapes"
    value {
      list {
        shape {
          dim {
            size: 2
          }
        }
      }
    }
  }
  attr {
    key: "dtype"
    value {
      type: DT_INT32
    }
  }
  attr {
    key: "value"
    value {
      tensor {
        dtype: DT_INT32
        tensor_shape {
          dim {
            size: 2
          }
        }
        tensor_content: "\001\000\000\000\001\000\000\000"
      }
    }
  }
}
node {
  name: "conv2d_2/Conv2D"
  op: "Conv2D"
  input: "max_pooling2d/MaxPool"
  input: "conv2d_1/kernel/read"
  attr {
    key: "T"
    value {
      type: DT_FLOAT
    }
  }
  attr {
    key: "_output_shapes"
    value {
      list {
        shape {
          dim {
            size: 100
          }
          dim {
            size: 32
          }
          dim {
            size: 32
          }
          dim {
            size: 128
          }
        }
      }
    }
  }
  attr {
    key: "data_format"
    value {
      s: "NHWC"
    }
  }
  attr {
    key: "padding"
    value {
      s: "SAME"
    }
  }
  attr {
    key: "strides"
    value {
      list {
        i: 1
        i: 1
        i: 1
        i: 1
      }
    }
  }
  attr {
    key: "use_cudnn_on_gpu"
    value {
      b: true
    }
  }
}
node {
  name: "conv2d_2/BiasAdd"
  op: "BiasAdd"
  input: "conv2d_2/Conv2D"
  input: "conv2d_1/bias/read"
  attr {
    key: "T"
    value {
      type: DT_FLOAT
    }
  }
  attr {
    key: "_output_shapes"
    value {
      list {
        shape {
          dim {
            size: 100
          }
          dim {
            size: 32
          }
          dim {
            size: 32
          }
          dim {
            size: 128
          }
        }
      }
    }
  }
  attr {
    key: "data_format"
    value {
      s: "NHWC"
    }
  }
}
node {
  name: "conv2d_2/Relu"
  op: "Relu"
  input: "conv2d_2/BiasAdd"
  attr {
    key: "T"
    value {
      type: DT_FLOAT
    }
  }
  attr {
    key: "_output_shapes"
    value {
      list {
        shape {
          dim {
            size: 100
          }
          dim {
            size: 32
          }
          dim {
            size: 32
          }
          dim {
            size: 128
          }
        }
      }
    }
  }
}
node {
  name: "max_pooling2d_2/MaxPool"
  op: "MaxPool"
  input: "conv2d_2/Relu"
  attr {
    key: "T"
    value {
      type: DT_FLOAT
    }
  }
  attr {
    key: "_output_shapes"
    value {
      list {
        shape {
          dim {
            size: 100
          }
          dim {
            size: 16
          }
          dim {
            size: 16
          }
          dim {
            size: 128
          }
        }
      }
    }
  }
  attr {
    key: "data_format"
    value {
      s: "NHWC"
    }
  }
  attr {
    key: "ksize"
    value {
      list {
        i: 1
        i: 2
        i: 2
        i: 1
      }
    }
  }
  attr {
    key: "padding"
    value {
      s: "VALID"
    }
  }
  attr {
    key: "strides"
    value {
      list {
        i: 1
        i: 2
        i: 2
        i: 1
      }
    }
  }
}
node {
  name: "conv2d_2/kernel/Initializer/random_uniform/shape"
  op: "Const"
  attr {
    key: "_class"
    value {
      list {
        s: "loc:@conv2d_2/kernel"
      }
    }
  }
  attr {
    key: "_output_shapes"
    value {
      list {
        shape {
          dim {
            size: 4
          }
        }
      }
    }
  }
  attr {
    key: "dtype"
    value {
      type: DT_INT32
    }
  }
  attr {
    key: "value"
    value {
      tensor {
        dtype: DT_INT32
        tensor_shape {
          dim {
            size: 4
          }
        }
        tensor_content: "\003\000\000\000\003\000\000\000\200\000\000\000\200\000\000\000"
      }
    }
  }
}
node {
  name: "conv2d_2/kernel/Initializer/random_uniform/min"
  op: "Const"
  attr {
    key: "_class"
    value {
      list {
        s: "loc:@conv2d_2/kernel"
      }
    }
  }
  attr {
    key: "_output_shapes"
    value {
      list {
        shape {
        }
      }
    }
  }
  attr {
    key: "dtype"
    value {
      type: DT_FLOAT
    }
  }
  attr {
    key: "value"
    value {
      tensor {
        dtype: DT_FLOAT
        tensor_shape {
        }
        float_val: -0.05103103816509247
      }
    }
  }
}
node {
  name: "conv2d_2/kernel/Initializer/random_uniform/max"
  op: "Const"
  attr {
    key: "_class"
    value {
      list {
        s: "loc:@conv2d_2/kernel"
      }
    }
  }
  attr {
    key: "_output_shapes"
    value {
      list {
        shape {
        }
      }
    }
  }
  attr {
    key: "dtype"
    value {
      type: DT_FLOAT
    }
  }
  attr {
    key: "value"
    value {
      tensor {
        dtype: DT_FLOAT
        tensor_shape {
        }
        float_val: 0.05103103816509247
      }
    }
  }
}
node {
  name: "conv2d_2/kernel/Initializer/random_uniform/RandomUniform"
  op: "RandomUniform"
  input: "conv2d_2/kernel/Initializer/random_uniform/shape"
  attr {
    key: "T"
    value {
      type: DT_INT32
    }
  }
  attr {
    key: "_class"
    value {
      list {
        s: "loc:@conv2d_2/kernel"
      }
    }
  }
  attr {
    key: "_output_shapes"
    value {
      list {
        shape {
          dim {
            size: 3
          }
          dim {
            size: 3
          }
          dim {
            size: 128
          }
          dim {
            size: 128
          }
        }
      }
    }
  }
  attr {
    key: "dtype"
    value {
      type: DT_FLOAT
    }
  }
  attr {
    key: "seed"
    value {
      i: 0
    }
  }
  attr {
    key: "seed2"
    value {
      i: 0
    }
  }
}
node {
  name: "conv2d_2/kernel/Initializer/random_uniform/sub"
  op: "Sub"
  input: "conv2d_2/kernel/Initializer/random_uniform/max"
  input: "conv2d_2/kernel/Initializer/random_uniform/min"
  attr {
    key: "T"
    value {
      type: DT_FLOAT
    }
  }
  attr {
    key: "_class"
    value {
      list {
        s: "loc:@conv2d_2/kernel"
      }
    }
  }
  attr {
    key: "_output_shapes"
    value {
      list {
        shape {
        }
      }
    }
  }
}
node {
  name: "conv2d_2/kernel/Initializer/random_uniform/mul"
  op: "Mul"
  input: "conv2d_2/kernel/Initializer/random_uniform/RandomUniform"
  input: "conv2d_2/kernel/Initializer/random_uniform/sub"
  attr {
    key: "T"
    value {
      type: DT_FLOAT
    }
  }
  attr {
    key: "_class"
    value {
      list {
        s: "loc:@conv2d_2/kernel"
      }
    }
  }
  attr {
    key: "_output_shapes"
    value {
      list {
        shape {
          dim {
            size: 3
          }
          dim {
            size: 3
          }
          dim {
            size: 128
          }
          dim {
            size: 128
          }
        }
      }
    }
  }
}
node {
  name: "conv2d_2/kernel/Initializer/random_uniform"
  op: "Add"
  input: "conv2d_2/kernel/Initializer/random_uniform/mul"
  input: "conv2d_2/kernel/Initializer/random_uniform/min"
  attr {
    key: "T"
    value {
      type: DT_FLOAT
    }
  }
  attr {
    key: "_class"
    value {
      list {
        s: "loc:@conv2d_2/kernel"
      }
    }
  }
  attr {
    key: "_output_shapes"
    value {
      list {
        shape {
          dim {
            size: 3
          }
          dim {
            size: 3
          }
          dim {
            size: 128
          }
          dim {
            size: 128
          }
        }
      }
    }
  }
}
node {
  name: "conv2d_2/kernel"
  op: "VariableV2"
  attr {
    key: "_class"
    value {
      list {
        s: "loc:@conv2d_2/kernel"
      }
    }
  }
  attr {
    key: "_output_shapes"
    value {
      list {
        shape {
          dim {
            size: 3
          }
          dim {
            size: 3
          }
          dim {
            size: 128
          }
          dim {
            size: 128
          }
        }
      }
    }
  }
  attr {
    key: "container"
    value {
      s: ""
    }
  }
  attr {
    key: "dtype"
    value {
      type: DT_FLOAT
    }
  }
  attr {
    key: "shape"
    value {
      shape {
        dim {
          size: 3
        }
        dim {
          size: 3
        }
        dim {
          size: 128
        }
        dim {
          size: 128
        }
      }
    }
  }
  attr {
    key: "shared_name"
    value {
      s: ""
    }
  }
}
node {
  name: "conv2d_2/kernel/Assign"
  op: "Assign"
  input: "conv2d_2/kernel"
  input: "conv2d_2/kernel/Initializer/random_uniform"
  attr {
    key: "T"
    value {
      type: DT_FLOAT
    }
  }
  attr {
    key: "_class"
    value {
      list {
        s: "loc:@conv2d_2/kernel"
      }
    }
  }
  attr {
    key: "_output_shapes"
    value {
      list {
        shape {
          dim {
            size: 3
          }
          dim {
            size: 3
          }
          dim {
            size: 128
          }
          dim {
            size: 128
          }
        }
      }
    }
  }
  attr {
    key: "use_locking"
    value {
      b: true
    }
  }
  attr {
    key: "validate_shape"
    value {
      b: true
    }
  }
}
node {
  name: "conv2d_2/kernel/read"
  op: "Identity"
  input: "conv2d_2/kernel"
  attr {
    key: "T"
    value {
      type: DT_FLOAT
    }
  }
  attr {
    key: "_class"
    value {
      list {
        s: "loc:@conv2d_2/kernel"
      }
    }
  }
  attr {
    key: "_output_shapes"
    value {
      list {
        shape {
          dim {
            size: 3
          }
          dim {
            size: 3
          }
          dim {
            size: 128
          }
          dim {
            size: 128
          }
        }
      }
    }
  }
}
node {
  name: "conv2d_2/bias/Initializer/zeros"
  op: "Const"
  attr {
    key: "_class"
    value {
      list {
        s: "loc:@conv2d_2/bias"
      }
    }
  }
  attr {
    key: "_output_shapes"
    value {
      list {
        shape {
          dim {
            size: 128
          }
        }
      }
    }
  }
  attr {
    key: "dtype"
    value {
      type: DT_FLOAT
    }
  }
  attr {
    key: "value"
    value {
      tensor {
        dtype: DT_FLOAT
        tensor_shape {
          dim {
            size: 128
          }
        }
        float_val: 0.0
      }
    }
  }
}
node {
  name: "conv2d_2/bias"
  op: "VariableV2"
  attr {
    key: "_class"
    value {
      list {
        s: "loc:@conv2d_2/bias"
      }
    }
  }
  attr {
    key: "_output_shapes"
    value {
      list {
        shape {
          dim {
            size: 128
          }
…
            size: 1
          }
        }
        string_val: ""
      }
    }
  }
}
node {
  name: "save/RestoreV2_8"
  op: "RestoreV2"
  input: "save/Const"
  input: "save/RestoreV2_8/tensor_names"
  input: "save/RestoreV2_8/shape_and_slices"
  attr {
    key: "_output_shapes"
    value {
      list {
        shape {
          unknown_rank: true
        }
      }
    }
  }
  attr {
    key: "dtypes"
    value {
      list {
        type: DT_FLOAT
      }
    }
  }
}
node {
  name: "save/Assign_8"
  op: "Assign"
  input: "conv2d_1/bias"
  input: "save/RestoreV2_8"
  attr {
    key: "T"
    value {
      type: DT_FLOAT
    }
  }
  attr {
    key: "_class"
    value {
      list {
        s: "loc:@conv2d_1/bias"
      }
    }
  }
  attr {
    key: "_output_shapes"
    value {
      list {
        shape {
          dim {
            size: 128
          }
        }
      }
    }
  }
  attr {
    key: "use_locking"
    value {
      b: true
    }
  }
  attr {
    key: "validate_shape"
    value {
      b: true
    }
  }
}
node {
  name: "save/RestoreV2_9/tensor_names"
  op: "Const"
  attr {
    key: "_output_shapes"
    value {
      list {
        shape {
          dim {
            size: 1
          }
        }
      }
    }
  }
  attr {
    key: "dtype"
    value {
      type: DT_STRING
    }
  }
  attr {
    key: "value"
    value {
      tensor {
        dtype: DT_STRING
        tensor_shape {
          dim {
            size: 1
          }
        }
        string_val: "conv2d_1/bias/Adam"
      }
    }
  }
}
node {
  name: "save/RestoreV2_9/shape_and_slices"
  op: "Const"
  attr {
    key: "_output_shapes"
    value {
      list {
        shape {
          dim {
            size: 1
          }
        }
      }
    }
  }
  attr {
    key: "dtype"
    value {
      type: DT_STRING
    }
  }
  attr {
    key: "value"
    value {
      tensor {
        dtype: DT_STRING
        tensor_shape {
          dim {
            size: 1
          }
        }
        string_val: ""
      }
    }
  }
}
node {
  name: "save/RestoreV2_9"
  op: "RestoreV2"
  input: "save/Const"
  input: "save/RestoreV2_9/tensor_names"
  input: "save/RestoreV2_9/shape_and_slices"
  attr {
    key: "_output_shapes"
    value {
      list {
        shape {
          unknown_rank: true
        }
      }
    }
  }
  attr {
    key: "dtypes"
    value {
      list {
        type: DT_FLOAT
      }
    }
  }
}
node {
  name: "save/Assign_9"
  op: "Assign"
  input: "conv2d_1/bias/Adam"
  input: "save/RestoreV2_9"
  attr {
    key: "T"
    value {
      type: DT_FLOAT
    }
  }
  attr {
    key: "_class"
    value {
      list {
        s: "loc:@conv2d_1/bias"
      }
    }
  }
  attr {
    key: "_output_shapes"
    value {
      list {
        shape {
          dim {
            size: 128
          }
        }
      }
    }
  }
  attr {
    key: "use_locking"
    value {
      b: true
    }
  }
  attr {
    key: "validate_shape"
    value {
      b: true
    }
  }
}
node {
  name: "save/RestoreV2_10/tensor_names"
  op: "Const"
  attr {
    key: "_output_shapes"
    value {
      list {
        shape {
          dim {
            size: 1
          }
        }
      }
    }
  }
  attr {
    key: "dtype"
    value {
      type: DT_STRING
    }
  }
  attr {
    key: "value"
    value {
      tensor {
        dtype: DT_STRING
        tensor_shape {
          dim {
            size: 1
          }
        }
        string_val: "conv2d_1/bias/Adam_1"
      }
    }
  }
}
node {
  name: "save/RestoreV2_10/shape_and_slices"
  op: "Const"
  attr {
    key: "_output_shapes"
    value {
      list {
        shape {
          dim {
            size: 1
          }
        }
      }
    }
  }
  attr {
    key: "dtype"
    value {
      type: DT_STRING
    }
  }
  attr {
    key: "value"
    value {
      tensor {
        dtype: DT_STRING
        tensor_shape {
          dim {
            size: 1
          }
        }
        string_val: ""
      }
    }
  }
}
node {
  name: "save/RestoreV2_10"
  op: "RestoreV2"
  input: "save/Const"
  input: "save/RestoreV2_10/tensor_names"
  input: "save/RestoreV2_10/shape_and_slices"
  attr {
    key: "_output_shapes"
    value {
      list {
        shape {
          unknown_rank: true
        }
      }
    }
  }
  attr {
    key: "dtypes"
    value {
      list {
        type: DT_FLOAT
      }
    }
  }
}
node {
  name: "save/Assign_10"
  op: "Assign"
  input: "conv2d_1/bias/Adam_1"
  input: "save/RestoreV2_10"
  attr {
    key: "T"
    value {
      type: DT_FLOAT
    }
  }
  attr {
    key: "_class"
    value {
      list {
        s: "loc:@conv2d_1/bias"
      }
    }
  }
  attr {
    key: "_output_shapes"
    value {
      list {
        shape {
          dim {
            size: 128
          }
        }
      }
    }
  }
  attr {
    key: "use_locking"
    value {
      b: true
    }
  }
  attr {
    key: "validate_shape"
    value {
      b: true
    }
  }
}
node {
  name: "save/RestoreV2_11/tensor_names"
  op: "Const"
  attr {
    key: "_output_shapes"
    value {
      list {
        shape {
          dim {
            size: 1
          }
        }
      }
    }
  }
  attr {
    key: "dtype"
    value {
      type: DT_STRING
    }
  }
  attr {
    key: "value"
    value {
      tensor {
        dtype: DT_STRING
        tensor_shape {
          dim {
            size: 1
          }
        }
        string_val: "conv2d_1/kernel"
      }
    }
  }
}
node {
  name: "save/RestoreV2_11/shape_and_slices"
  op: "Const"
  attr {
    key: "_output_shapes"
    value {
      list {
        shape {
          dim {
            size: 1
          }
        }
      }
    }
  }
  attr {
    key: "dtype"
    value {
      type: DT_STRING
    }
  }
  attr {
    key: "value"
    value {
      tensor {
        dtype: DT_STRING
        tensor_shape {
          dim {
            size: 1
          }
        }
        string_val: ""
      }
    }
  }
}
node {
  name: "save/RestoreV2_11"
  op: "RestoreV2"
  input: "save/Const"
  input: "save/RestoreV2_11/tensor_names"
  input: "save/RestoreV2_11/shape_and_slices"
  attr {
    key: "_output_shapes"
    value {
      list {
        shape {
          unknown_rank: true
        }
      }
    }
  }
  attr {
    key: "dtypes"
    value {
      list {
        type: DT_FLOAT
      }
    }
  }
}
node {
  name: "save/Assign_11"
  op: "Assign"
  input: "conv2d_1/kernel"
  input: "save/RestoreV2_11"
  attr {
    key: "T"
    value {
      type: DT_FLOAT
    }
  }
  attr {
    key: "_class"
    value {
      list {
        s: "loc:@conv2d_1/kernel"
      }
    }
  }
  attr {
    key: "_output_shapes"
    value {
      list {
        shape {
          dim {
            size: 5
          }
          dim {
            size: 5
          }
          dim {
            size: 64
          }
          dim {
            size: 128
          }
        }
      }
    }
  }
  attr {
    key: "use_locking"
    value {
      b: true
    }
  }
  attr {
    key: "validate_shape"
    value {
      b: true
    }
  }
}
node {
  name: "save/RestoreV2_12/tensor_names"
  op: "Const"
  attr {
    key: "_output_shapes"
    value {
      list {
        shape {
          dim {
            size: 1
          }
        }
      }
    }
  }
  attr {
    key: "dtype"
    value {
      type: DT_STRING
    }
  }
  attr {
    key: "value"
    value {
      tensor {
        dtype: DT_STRING
        tensor_shape {
          dim {
            size: 1
          }
        }
        string_val: "conv2d_1/kernel/Adam"
      }
    }
  }
}
node {
  name: "save/RestoreV2_12/shape_and_slices"
  op: "Const"
  attr {
    key: "_output_shapes"
    value {
      list {
        shape {
          dim {
            size: 1
          }
        }
      }
    }
  }
  attr {
    key: "dtype"
    value {
      type: DT_STRING
    }
  }
  attr {
    key: "value"
    value {
      tensor {
        dtype: DT_STRING
        tensor_shape {
          dim {
            size: 1
          }
        }
        string_val: ""
      }
    }
  }
}
node {
  name: "save/RestoreV2_12"
  op: "RestoreV2"
  input: "save/Const"
  input: "save/RestoreV2_12/tensor_names"
  input: "save/RestoreV2_12/shape_and_slices"
  attr {
    key: "_output_shapes"
    value {
      list {
        shape {
          unknown_rank: true
        }
      }
    }
  }
  attr {
    key: "dtypes"
    value {
      list {
        type: DT_FLOAT
      }
    }
  }
}
node {
  name: "save/Assign_12"
  op: "Assign"
  input: "conv2d_1/kernel/Adam"
  input: "save/RestoreV2_12"
  attr {
    key: "T"
    value {
      type: DT_FLOAT
    }
  }
  attr {
    key: "_class"
    value {
      list {
        s: "loc:@conv2d_1/kernel"
      }
    }
  }
  attr {
    key: "_output_shapes"
    value {
      list {
        shape {
          dim {
            size: 5
          }
          dim {
            size: 5
          }
          dim {
            size: 64
          }
          dim {
            size: 128
          }
        }
      }
    }
  }
  attr {
    key: "use_locking"
    value {
      b: true
    }
  }
  attr {
    key: "validate_shape"
    value {
      b: true
    }
  }
}
node {
  name: "save/RestoreV2_13/tensor_names"
  op: "Const"
  attr {
    key: "_output_shapes"
    value {
      list {
        shape {
          dim {
            size: 1
          }
        }
      }
    }
  }
  attr {
    key: "dtype"
    value {
      type: DT_STRING
    }
  }
  attr {
    key: "value"
    value {
      tensor {
        dtype: DT_STRING
        tensor_shape {
          dim {
            size: 1
          }
        }
        string_val: "conv2d_1/kernel/Adam_1"
      }
    }
  }
}
node {
  name: "save/RestoreV2_13/shape_and_slices"
  op: "Const"
  attr {
    key: "_output_shapes"
    value {
      list {
        shape {
          dim {
            size: 1
          }
        }
      }
    }
  }
  attr {
    key: "dtype"
    value {
      type: DT_STRING
    }
  }
  attr {
    key: "value"
    value {
      tensor {
        dtype: DT_STRING
        tensor_shape {
          dim {
            size: 1
          }
        }
        string_val: ""
      }
    }
  }
}
node {
  name: "save/RestoreV2_13"
  op: "RestoreV2"
  input: "save/Const"
  input: "save/RestoreV2_13/tensor_names"
  input: "save/RestoreV2_13/shape_and_slices"
  attr {
    key: "_output_shapes"
    value {
      list {
        shape {
          unknown_rank: true
        }
      }
    }
  }
  attr {
    key: "dtypes"
    value {
      list {
        type: DT_FLOAT
      }
    }
  }
}
node {
  name: "save/Assign_13"
  op: "Assign"
  input: "conv2d_1/kernel/Adam_1"
  input: "save/RestoreV2_13"
  attr {
    key: "T"
    value {
      type: DT_FLOAT
    }
  }
  attr {
    key: "_class"
    value {
      list {
        s: "loc:@conv2d_1/kernel"
      }
    }
  }
  attr {
    key: "_output_shapes"
    value {
      list {
        shape {
          dim {
            size: 5
          }
          dim {
            size: 5
          }
          dim {
            size: 64
          }
          dim {
            size: 128
          }
        }
      }
    }
  }
  attr {
    key: "use_locking"
    value {
      b: true
    }
  }
  attr {
    key: "validate_shape"
    value {
      b: true
    }
  }
}
node {
  name: "save/RestoreV2_14/tensor_names"
  op: "Const"
  attr {
    key: "_output_shapes"
    value {
      list {
        shape {
          dim {
            size: 1
          }
        }
      }
    }
  }
  attr {
    key: "dtype"
    value {
      type: DT_STRING
    }
  }
  attr {
    key: "value"
    value {
      tensor {
        dtype: DT_STRING
        tensor_shape {
          dim {
            size: 1
          }
        }
        string_val: "conv2d_2/bias"
      }
    }
  }
}
node {
  name: "save/RestoreV2_14/shape_and_slices"
  op: "Const"
  attr {
    key: "_output_shapes"
    value {
      list {
        shape {
          dim {
            size: 1
          }
        }
      }
    }
  }
  attr {
    key: "dtype"
    value {
      type: DT_STRING
    }
  }
  attr {
    key: "value"
    value {
      tensor {
        dtype: DT_STRING
        tensor_shape {
          dim {
            size: 1
          }
        }
        string_val: ""
      }
    }
  }
}
node {
  name: "save/RestoreV2_14"
  op: "RestoreV2"
  input: "save/Const"
  input: "save/RestoreV2_14/tensor_names"
  input: "save/RestoreV2_14/shape_and_slices"
  attr {
    key: "_output_shapes"
    value {
      list {
        shape {
          unknown_rank: true
        }
      }
    }
  }
  attr {
    key: "dtypes"
    value {
      list {
        type: DT_FLOAT
      }
    }
  }
}
node {
  name: "save/Assign_14"
  op: "Assign"
  input: "conv2d_2/bias"
  input: "save/RestoreV2_14"
  attr {
    key: "T"
    value {
      type: DT_FLOAT
    }
  }
  attr {
    key: "_class"
    value {
      list {
        s: "loc:@conv2d_2/bias"
      }
    }
  }
  attr {
    key: "_output_shapes"
    value {
      list {
        shape {
          dim {
            size: 128
          }
        }
      }
    }
  }
  attr {
    key: "use_locking"
    value {
      b: true
    }
  }
  attr {
    key: "validate_shape"
    value {
      b: true
    }
  }
}
node {
  name: "save/RestoreV2_15/tensor_names"
  op: "Const"
  attr {
    key: "_output_shapes"
    value {
      list {
        shape {
          dim {
            size: 1
          }
        }
      }
    }
  }
  attr {
    key: "dtype"
    value {
      type: DT_STRING
    }
  }
  attr {
    key: "value"
    value {
      tensor {
        dtype: DT_STRING
        tensor_shape {
          dim {
            size: 1
          }
        }
        string_val: "conv2d_2/bias/Adam"
      }
    }
  }
}
node {
  name: "save/RestoreV2_15/shape_and_slices"
  op: "Const"
  attr {
    key: "_output_shapes"
    value {
      list {
        shape {
          dim {
            size: 1
          }
        }
      }
    }
  }
  attr {
    key: "dtype"
    value {
      type: DT_STRING
    }
  }
  attr {
    key: "value"
    value {
      tensor {
        dtype: DT_STRING
        tensor_shape {
          dim {
            size: 1
          }
        }
        string_val: ""
      }
    }
  }
}
node {
  name: "save/RestoreV2_15"
  op: "RestoreV2"
  input: "save/Const"
  input: "save/RestoreV2_15/tensor_names"
  input: "save/RestoreV2_15/shape_and_slices"
  attr {
    key: "_output_shapes"
    value {
      list {
        shape {
          unknown_rank: true
        }
      }
    }
  }
  attr {
    key: "dtypes"
    value {
      list {
        type: DT_FLOAT
      }
    }
  }
}
node {
  name: "save/Assign_15"
  op: "Assign"
  input: "conv2d_2/bias/Adam"
  input: "save/RestoreV2_15"
  attr {
    key: "T"
    value {
      type: DT_FLOAT
    }
  }
  attr {
    key: "_class"
    value {
      list {
        s: "loc:@conv2d_2/bias"
      }
    }
  }
  attr {
    key: "_output_shapes"
    value {
      list {
        shape {
          dim {
            size: 128
          }
        }
      }
    }
  }
  attr {
    key: "use_locking"
    value {
      b: true
    }
  }
  attr {
    key: "validate_shape"
    value {
      b: true
    }
  }
}
node {
  name: "save/RestoreV2_16/tensor_names"
  op: "Const"
  attr {
    key: "_output_shapes"
    value {
      list {
        shape {
          dim {
            size: 1
          }
        }
      }
    }
  }
  attr {
    key: "dtype"
    value {
      type: DT_STRING
    }
  }
  attr {
    key: "value"
    value {
      tensor {
        dtype: DT_STRING
        tensor_shape {
          dim {
            size: 1
          }
        }
        string_val: "conv2d_2/bias/Adam_1"
      }
    }
  }
}
node {
  name: "save/RestoreV2_16/shape_and_slices"
  op: "Const"
  attr {
    key: "_output_shapes"
    value {
      list {
        shape {
          dim {
            size: 1
          }
        }
      }
    }
  }
  attr {
    key: "dtype"
    value {
      type: DT_STRING
    }
  }
  attr {
    key: "value"
    value {
      tensor {
        dtype: DT_STRING
        tensor_shape {
          dim {
            size: 1
          }
        }
        string_val: ""
      }
    }
  }
}
node {
  name: "save/RestoreV2_16"
  op: "RestoreV2"
  input: "save/Const"
  input: "save/RestoreV2_16/tensor_names"
  input: "save/RestoreV2_16/shape_and_slices"
  attr {
    key: "_output_shapes"
    value {
      list {
        shape {
          unknown_rank: true
        }
      }
    }
  }
  attr {
    key: "dtypes"
    value {
      list {
        type: DT_FLOAT
      }
    }
  }
}
node {
  name: "save/Assign_16"
  op: "Assign"
  input: "conv2d_2/bias/Adam_1"
  input: "save/RestoreV2_16"
  attr {
    key: "T"
    value {
      type: DT_FLOAT
    }
  }
  attr {
    key: "_class"
    value {
      list {
        s: "loc:@conv2d_2/bias"
      }
    }
  }
  attr {
    key: "_output_shapes"
    value {
      list {
        shape {
          dim {
            size: 128
          }
        }
      }
    }
  }
  attr {
    key: "use_locking"
    value {
      b: true
    }
  }
  attr {
    key: "validate_shape"
    value {
      b: true
    }
  }
}
node {
  name: "save/RestoreV2_17/tensor_names"
  op: "Const"
  attr {
    key: "_output_shapes"
    value {
      list {
        shape {
          dim {
            size: 1
          }
        }
      }
    }
  }
  attr {
    key: "dtype"
    value {
      type: DT_STRING
    }
  }
  attr {
    key: "value"
    value {
      tensor {
        dtype: DT_STRING
        tensor_shape {
          dim {
            size: 1
          }
        }
        string_val: "conv2d_2/kernel"
      }
    }
  }
}
node {
  name: "save/RestoreV2_17/shape_and_slices"
  op: "Const"
  attr {
    key: "_output_shapes"
    value {
      list {
        shape {
          dim {
            size: 1
          }
        }
      }
    }
  }
  attr {
    key: "dtype"
    value {
      type: DT_STRING
    }
  }
  attr {
    key: "value"
    value {
      tensor {
        dtype: DT_STRING
        tensor_shape {
          dim {
            size: 1
          }
        }
        string_val: ""
      }
    }
  }
}
node {
  name: "save/RestoreV2_17"
  op: "RestoreV2"
  input: "save/Const"
  input: "save/RestoreV2_17/tensor_names"
  input: "save/RestoreV2_17/shape_and_slices"
  attr {
    key: "_output_shapes"
    value {
      list {
        shape {
          unknown_rank: true
        }
      }
    }
  }
  attr {
    key: "dtypes"
    value {
      list {
        type: DT_FLOAT
      }
    }
  }
}
node {
  name: "save/Assign_17"
  op: "Assign"
  input: "conv2d_2/kernel"
  input: "save/RestoreV2_17"
  attr {
    key: "T"
    value {
      type: DT_FLOAT
    }
  }
  attr {
    key: "_class"
    value {
      list {
        s: "loc:@conv2d_2/kernel"
      }
    }
  }
  attr {
    key: "_output_shapes"
    value {
      list {
        shape {
          dim {
            size: 3
          }
          dim {
            size: 3
          }
          dim {
            size: 128
          }
          dim {
            size: 128
          }
        }
      }
    }
  }
  attr {
    key: "use_locking"
    value {
      b: true
    }
  }
  attr {
    key: "validate_shape"
    value {
      b: true
    }
  }
}
node {
  name: "save/RestoreV2_18/tensor_names"
  op: "Const"
  attr {
    key: "_output_shapes"
    value {
      list {
        shape {
          dim {
            size: 1
          }
        }
      }
    }
  }
  attr {
    key: "dtype"
    value {
      type: DT_STRING
    }
  }
  attr {
    key: "value"
    value {
      tensor {
        dtype: DT_STRING
        tensor_shape {
          dim {
            size: 1
          }
        }
        string_val: "conv2d_2/kernel/Adam"
      }
    }
  }
}
node {
  name: "save/RestoreV2_18/shape_and_slices"
  op: "Const"
  attr {
    key: "_output_shapes"
    value {
      list {
        shape {
          dim {
            size: 1
          }
        }
      }
    }
  }
  attr {
    key: "dtype"
    value {
      type: DT_STRING
    }
  }
  attr {
    key: "value"
    value {
      tensor {
        dtype: DT_STRING
        tensor_shape {
          dim {
            size: 1
          }
        }
        string_val: ""
      }
    }
  }
}
node {
  name: "save/RestoreV2_18"
  op: "RestoreV2"
  input: "save/Const"
  input: "save/RestoreV2_18/tensor_names"
  input: "save/RestoreV2_18/shape_and_slices"
  attr {
    key: "_output_shapes"
    value {
      list {
        shape {
          unknown_rank: true
        }
      }
    }
  }
  attr {
    key: "dtypes"
    value {
      list {
        type: DT_FLOAT
      }
    }
  }
}
node {
  name: "save/Assign_18"
  op: "Assign"
  input: "conv2d_2/kernel/Adam"
  input: "save/RestoreV2_18"
  attr {
    key: "T"
    value {
      type: DT_FLOAT
    }
  }
  attr {
    key: "_class"
    value {
      list {
        s: "loc:@conv2d_2/kernel"
      }
    }
  }
  attr {
    key: "_output_shapes"
    value {
      list {
        shape {
          dim {
            size: 3
          }
          dim {
            size: 3
          }
          dim {
            size: 128
          }
          dim {
            size: 128
          }
        }
      }
    }
  }
  attr {
    key: "use_locking"
    value {
      b: true
    }
  }
  attr {
    key: "validate_shape"
    value {
      b: true
    }
  }
}
node {
  name: "save/RestoreV2_19/tensor_names"
  op: "Const"
  attr {
    key: "_output_shapes"
    value {
      list {
        shape {
          dim {
            size: 1
          }
        }
      }
    }
  }
  attr {
    key: "dtype"
    value {
      type: DT_STRING
    }
  }
  attr {
    key: "value"
    value {
      tensor {
        dtype: DT_STRING
        tensor_shape {
          dim {
            size: 1
          }
        }
        string_val: "conv2d_2/kernel/Adam_1"
      }
    }
  }
}
node {
  name: "save/RestoreV2_19/shape_and_slices"
  op: "Const"
  attr {
    key: "_output_shapes"
    value {
      list {
        shape {
          dim {
            size: 1
          }
        }
      }
    }
  }
  attr {
    key: "dtype"
    value {
      type: DT_STRING
    }
  }
  attr {
    key: "value"
    value {
      tensor {
        dtype: DT_STRING
        tensor_shape {
          dim {
            size: 1
          }
        }
        string_val: ""
      }
    }
  }
}
node {
  name: "save/RestoreV2_19"
  op: "RestoreV2"
  input: "save/Const"
  input: "save/RestoreV2_19/tensor_names"
  input: "save/RestoreV2_19/shape_and_slices"
  attr {
    key: "_output_shapes"
    value {
      list {
        shape {
          unknown_rank: true
        }
      }
    }
  }
  attr {
    key: "dtypes"
    value {
      list {
        type: DT_FLOAT
      }
    }
  }
}
node {
  name: "save/Assign_19"
  op: "Assign"
  input: "conv2d_2/kernel/Adam_1"
  input: "save/RestoreV2_19"
  attr {
    key: "T"
    value {
      type: DT_FLOAT
    }
  }
  attr {
    key: "_class"
    value {
      list {
        s: "loc:@conv2d_2/kernel"
      }
    }
  }
  attr {
    key: "_output_shapes"
    value {
      list {
        shape {
          dim {
            size: 3
          }
          dim {
            size: 3
          }
          dim {
            size: 128
          }
          dim {
            size: 128
          }
        }
      }
    }
  }
  attr {
    key: "use_locking"
    value {
      b: true
    }
  }
  attr {
    key: "validate_shape"
    value {
      b: true
    }
  }
}
node {
  name: "save/RestoreV2_20/tensor_names"
  op: "Const"
  attr {
    key: "_output_shapes"
    value {
      list {
        shape {
          dim {
            size: 1
          }
        }
      }
    }
  }
  attr {
    key: "dtype"
    value {
      type: DT_STRING
    }
  }
  attr {
    key: "value"
    value {
      tensor {
        dtype: DT_STRING
        tensor_shape {
          dim {
            size: 1
          }
        }
        string_val: "dense/bias"
      }
    }
  }
}
node {
  name: "save/RestoreV2_20/shape_and_slices"
  op: "Const"
  attr {
    key: "_output_shapes"
    value {
      list {
        shape {
          dim {
            size: 1
          }
        }
      }
    }
  }
  attr {
    key: "dtype"
    value {
      type: DT_STRING
    }
  }
  attr {
    key: "value"
    value {
      tensor {
        dtype: DT_STRING
        tensor_shape {
          dim {
            size: 1
          }
        }
        string_val: ""
      }
    }
  }
}
node {
  name: "save/RestoreV2_20"
  op: "RestoreV2"
  input: "save/Const"
  input: "save/RestoreV2_20/tensor_names"
  input: "save/RestoreV2_20/shape_and_slices"
  attr {
    key: "_output_shapes"
    value {
      list {
        shape {
          unknown_rank: true
        }
      }
    }
  }
  attr {
    key: "dtypes"
    value {
      list {
        type: DT_FLOAT
      }
    }
  }
}
node {
  name: "save/Assign_20"
  op: "Assign"
  input: "dense/bias"
  input: "save/RestoreV2_20"
  attr {
    key: "T"
    value {
      type: DT_FLOAT
    }
  }
  attr {
    key: "_class"
    value {
      list {
        s: "loc:@dense/bias"
      }
    }
  }
  attr {
    key: "_output_shapes"
    value {
      list {
        shape {
          dim {
            size: 1024
          }
        }
      }
    }
  }
  attr {
    key: "use_locking"
    value {
      b: true
    }
  }
  attr {
    key: "validate_shape"
    value {
      b: true
    }
  }
}
node {
  name: "save/RestoreV2_21/tensor_names"
  op: "Const"
  attr {
    key: "_output_shapes"
    value {
      list {
        shape {
          dim {
            size: 1
          }
        }
      }
    }
  }
  attr {
    key: "dtype"
    value {
      type: DT_STRING
    }
  }
  attr {
    key: "value"
    value {
      tensor {
        dtype: DT_STRING
        tensor_shape {
          dim {
            size: 1
          }
        }
        string_val: "dense/bias/Adam"
      }
    }
  }
}
node {
  name: "save/RestoreV2_21/shape_and_slices"
  op: "Const"
  attr {
    key: "_output_shapes"
    value {
      list {
        shape {
          dim {
            size: 1
          }
        }
      }
    }
  }
  attr {
    key: "dtype"
    value {
      type: DT_STRING
    }
  }
  attr {
    key: "value"
    value {
      tensor {
        dtype: DT_STRING
        tensor_shape {
          dim {
            size: 1
          }
        }
        string_val: ""
      }
    }
  }
}
node {
  name: "save/RestoreV2_21"
  op: "RestoreV2"
  input: "save/Const"
  input: "save/RestoreV2_21/tensor_names"
  input: "save/RestoreV2_21/shape_and_slices"
  attr {
    key: "_output_shapes"
    value {
      list {
        shape {
          unknown_rank: true
        }
      }
    }
  }
  attr {
    key: "dtypes"
    value {
      list {
        type: DT_FLOAT
      }
    }
  }
}
node {
  name: "save/Assign_21"
  op: "Assign"
  input: "dense/bias/Adam"
  input: "save/RestoreV2_21"
  attr {
    key: "T"
    value {
      type: DT_FLOAT
    }
  }
  attr {
    key: "_class"
    value {
      list {
        s: "loc:@dense/bias"
      }
    }
  }
  attr {
    key: "_output_shapes"
    value {
      list {
        shape {
          dim {
            size: 1024
          }
        }
      }
    }
  }
  attr {
    key: "use_locking"
    value {
      b: true
    }
  }
  attr {
    key: "validate_shape"
    value {
      b: true
    }
  }
}
node {
  name: "save/RestoreV2_22/tensor_names"
  op: "Const"
  attr {
    key: "_output_shapes"
    value {
      list {
        shape {
          dim {
            size: 1
          }
        }
      }
    }
  }
  attr {
    key: "dtype"
    value {
      type: DT_STRING
    }
  }
  attr {
    key: "value"
    value {
      tensor {
        dtype: DT_STRING
        tensor_shape {
          dim {
            size: 1
          }
        }
        string_val: "dense/bias/Adam_1"
      }
    }
  }
}
node {
  name: "save/RestoreV2_22/shape_and_slices"
  op: "Const"
  attr {
    key: "_output_shapes"
    value {
      list {
        shape {
          dim {
            size: 1
          }
        }
      }
    }
  }
  attr {
    key: "dtype"
    value {
      type: DT_STRING
    }
  }
  attr {
    key: "value"
    value {
      tensor {
        dtype: DT_STRING
        tensor_shape {
          dim {
            size: 1
          }
        }
        string_val: ""
      }
    }
  }
}
node {
  name: "save/RestoreV2_22"
  op: "RestoreV2"
  input: "save/Const"
  input: "save/RestoreV2_22/tensor_names"
  input: "save/RestoreV2_22/shape_and_slices"
  attr {
    key: "_output_shapes"
    value {
      list {
        shape {
          unknown_rank: true
        }
      }
    }
  }
  attr {
    key: "dtypes"
    value {
      list {
        type: DT_FLOAT
      }
    }
  }
}
node {
  name: "save/Assign_22"
  op: "Assign"
  input: "dense/bias/Adam_1"
  input: "save/RestoreV2_22"
  attr {
    key: "T"
    value {
      type: DT_FLOAT
    }
  }
  attr {
    key: "_class"
    value {
      list {
        s: "loc:@dense/bias"
      }
    }
  }
  attr {
    key: "_output_shapes"
    value {
      list {
        shape {
          dim {
            size: 1024
          }
        }
      }
    }
  }
  attr {
    key: "use_locking"
    value {
      b: true
    }
  }
  attr {
    key: "validate_shape"
    value {
      b: true
    }
  }
}
node {
  name: "save/RestoreV2_23/tensor_names"
  op: "Const"
  attr {
    key: "_output_shapes"
    value {
      list {
        shape {
          dim {
            size: 1
          }
        }
      }
    }
  }
  attr {
    key: "dtype"
    value {
      type: DT_STRING
    }
  }
  attr {
    key: "value"
    value {
      tensor {
        dtype: DT_STRING
        tensor_shape {
          dim {
            size: 1
          }
        }
        string_val: "dense/kernel"
      }
    }
  }
}
node {
  name: "save/RestoreV2_23/shape_and_slices"
  op: "Const"
  attr {
    key: "_output_shapes"
    value {
      list {
        shape {
          dim {
            size: 1
          }
        }
      }
    }
  }
  attr {
    key: "dtype"
    value {
      type: DT_STRING
    }
  }
  attr {
    key: "value"
    value {
      tensor {
        dtype: DT_STRING
        tensor_shape {
          dim {
            size: 1
          }
        }
        string_val: ""
      }
    }
  }
}
node {
  name: "save/RestoreV2_23"
  op: "RestoreV2"
  input: "save/Const"
  input: "save/RestoreV2_23/tensor_names"
  input: "save/RestoreV2_23/shape_and_slices"
  attr {
    key: "_output_shapes"
    value {
      list {
        shape {
          unknown_rank: true
        }
      }
    }
  }
  attr {
    key: "dtypes"
    value {
      list {
        type: DT_FLOAT
      }
    }
  }
}
node {
  name: "save/Assign_23"
  op: "Assign"
  input: "dense/kernel"
  input: "save/RestoreV2_23"
  attr {
    key: "T"
    value {
      type: DT_FLOAT
    }
  }
  attr {
    key: "_class"
    value {
      list {
        s: "loc:@dense/kernel"
      }
    }
  }
  attr {
    key: "_output_shapes"
    value {
      list {
        shape {
          dim {
            size: 8192
          }
          dim {
            size: 1024
          }
        }
      }
    }
  }
  attr {
    key: "use_locking"
    value {
      b: true
    }
  }
  attr {
    key: "validate_shape"
    value {
      b: true
    }
  }
}
node {
  name: "save/RestoreV2_24/tensor_names"
  op: "Const"
  attr {
    key: "_output_shapes"
    value {
      list {
        shape {
          dim {
            size: 1
          }
        }
      }
    }
  }
  attr {
    key: "dtype"
    value {
      type: DT_STRING
    }
  }
  attr {
    key: "value"
    value {
      tensor {
        dtype: DT_STRING
        tensor_shape {
          dim {
            size: 1
          }
        }
        string_val: "dense/kernel/Adam"
      }
    }
  }
}
node {
  name: "save/RestoreV2_24/shape_and_slices"
  op: "Const"
  attr {
    key: "_output_shapes"
    value {
      list {
        shape {
          dim {
            size: 1
          }
        }
      }
    }
  }
  attr {
    key: "dtype"
    value {
      type: DT_STRING
    }
  }
  attr {
    key: "value"
    value {
      tensor {
        dtype: DT_STRING
        tensor_shape {
          dim {
            size: 1
          }
        }
        string_val: ""
      }
    }
  }
}
node {
  name: "save/RestoreV2_24"
  op: "RestoreV2"
  input: "save/Const"
  input: "save/RestoreV2_24/tensor_names"
  input: "save/RestoreV2_24/shape_and_slices"
  attr {
    key: "_output_shapes"
    value {
      list {
        shape {
          unknown_rank: true
        }
      }
    }
  }
  attr {
    key: "dtypes"
    value {
      list {
        type: DT_FLOAT
      }
    }
  }
}
node {
  name: "save/Assign_24"
  op: "Assign"
  input: "dense/kernel/Adam"
  input: "save/RestoreV2_24"
  attr {
    key: "T"
    value {
      type: DT_FLOAT
    }
  }
  attr {
    key: "_class"
    value {
      list {
        s: "loc:@dense/kernel"
      }
    }
  }
  attr {
    key: "_output_shapes"
    value {
      list {
        shape {
          dim {
            size: 8192
          }
          dim {
            size: 1024
          }
        }
      }
    }
  }
  attr {
    key: "use_locking"
    value {
      b: true
    }
  }
  attr {
    key: "validate_shape"
    value {
      b: true
    }
  }
}
node {
  name: "save/RestoreV2_25/tensor_names"
  op: "Const"
  attr {
    key: "_output_shapes"
    value {
      list {
        shape {
          dim {
            size: 1
          }
        }
      }
    }
  }
  attr {
    key: "dtype"
    value {
      type: DT_STRING
    }
  }
  attr {
    key: "value"
    value {
      tensor {
        dtype: DT_STRING
        tensor_shape {
          dim {
            size: 1
          }
        }
        string_val: "dense/kernel/Adam_1"
      }
    }
  }
}
node {
  name: "save/RestoreV2_25/shape_and_slices"
  op: "Const"
  attr {
    key: "_output_shapes"
    value {
      list {
        shape {
          dim {
            size: 1
          }
        }
      }
    }
  }
  attr {
    key: "dtype"
    value {
      type: DT_STRING
    }
  }
  attr {
    key: "value"
    value {
      tensor {
        dtype: DT_STRING
        tensor_shape {
          dim {
            size: 1
          }
        }
        string_val: ""
      }
    }
  }
}
node {
  name: "save/RestoreV2_25"
  op: "RestoreV2"
  input: "save/Const"
  input: "save/RestoreV2_25/tensor_names"
  input: "save/RestoreV2_25/shape_and_slices"
  attr {
    key: "_output_shapes"
    value {
      list {
        shape {
          unknown_rank: true
        }
      }
    }
  }
  attr {
    key: "dtypes"
    value {
      list {
        type: DT_FLOAT
      }
    }
  }
}
node {
  name: "save/Assign_25"
  op: "Assign"
  input: "dense/kernel/Adam_1"
  input: "save/RestoreV2_25"
  attr {
    key: "T"
    value {
      type: DT_FLOAT
    }
  }
  attr {
    key: "_class"
    value {
      list {
        s: "loc:@dense/kernel"
      }
    }
  }
  attr {
    key: "_output_shapes"
    value {
      list {
        shape {
          dim {
            size: 8192
          }
          dim {
            size: 1024
          }
        }
      }
    }
  }
  attr {
    key: "use_locking"
    value {
      b: true
    }
  }
  attr {
    key: "validate_shape"
    value {
      b: true
    }
  }
}
node {
  name: "save/RestoreV2_26/tensor_names"
  op: "Const"
  attr {
    key: "_output_shapes"
    value {
      list {
        shape {
          dim {
            size: 1
          }
        }
      }
    }
  }
  attr {
    key: "dtype"
    value {
      type: DT_STRING
    }
  }
  attr {
    key: "value"
    value {
      tensor {
        dtype: DT_STRING
        tensor_shape {
          dim {
            size: 1
          }
        }
        string_val: "dense_1/bias"
      }
    }
  }
}
node {
  name: "save/RestoreV2_26/shape_and_slices"
  op: "Const"
  attr {
    key: "_output_shapes"
    value {
      list {
        shape {
          dim {
            size: 1
          }
        }
      }
    }
  }
  attr {
    key: "dtype"
    value {
      type: DT_STRING
    }
  }
  attr {
    key: "value"
    value {
      tensor {
        dtype: DT_STRING
        tensor_shape {
          dim {
            size: 1
          }
        }
        string_val: ""
      }
    }
  }
}
node {
  name: "save/RestoreV2_26"
  op: "RestoreV2"
  input: "save/Const"
  input: "save/RestoreV2_26/tensor_names"
  input: "save/RestoreV2_26/shape_and_slices"
  attr {
    key: "_output_shapes"
    value {
      list {
        shape {
          unknown_rank: true
        }
      }
    }
  }
  attr {
    key: "dtypes"
    value {
      list {
        type: DT_FLOAT
      }
    }
  }
}
node {
  name: "save/Assign_26"
  op: "Assign"
  input: "dense_1/bias"
  input: "save/RestoreV2_26"
  attr {
    key: "T"
    value {
      type: DT_FLOAT
    }
  }
  attr {
    key: "_class"
    value {
      list {
        s: "loc:@dense_1/bias"
      }
    }
  }
  attr {
    key: "_output_shapes"
    value {
      list {
        shape {
          dim {
            size: 10
          }
        }
      }
    }
  }
  attr {
    key: "use_locking"
    value {
      b: true
    }
  }
  attr {
    key: "validate_shape"
    value {
      b: true
    }
  }
}
node {
  name: "save/RestoreV2_27/tensor_names"
  op: "Const"
  attr {
    key: "_output_shapes"
    value {
      list {
        shape {
          dim {
            size: 1
          }
        }
      }
    }
  }
  attr {
    key: "dtype"
    value {
      type: DT_STRING
    }
  }
  attr {
    key: "value"
    value {
      tensor {
        dtype: DT_STRING
        tensor_shape {
          dim {
            size: 1
          }
        }
        string_val: "dense_1/bias/Adam"
      }
    }
  }
}
node {
  name: "save/RestoreV2_27/shape_and_slices"
  op: "Const"
  attr {
    key: "_output_shapes"
    value {
      list {
        shape {
          dim {
            size: 1
          }
        }
      }
    }
  }
  attr {
    key: "dtype"
    value {
      type: DT_STRING
    }
  }
  attr {
    key: "value"
    value {
      tensor {
        dtype: DT_STRING
        tensor_shape {
          dim {
            size: 1
          }
        }
        string_val: ""
      }
    }
  }
}
node {
  name: "save/RestoreV2_27"
  op: "RestoreV2"
  input: "save/Const"
  input: "save/RestoreV2_27/tensor_names"
  input: "save/RestoreV2_27/shape_and_slices"
  attr {
    key: "_output_shapes"
    value {
      list {
        shape {
          unknown_rank: true
        }
      }
    }
  }
  attr {
    key: "dtypes"
    value {
      list {
        type: DT_FLOAT
      }
    }
  }
}
node {
  name: "save/Assign_27"
  op: "Assign"
  input: "dense_1/bias/Adam"
  input: "save/RestoreV2_27"
  attr {
    key: "T"
    value {
      type: DT_FLOAT
    }
  }
  attr {
    key: "_class"
    value {
      list {
        s: "loc:@dense_1/bias"
      }
    }
  }
  attr {
    key: "_output_shapes"
    value {
      list {
        shape {
          dim {
            size: 10
          }
        }
      }
    }
  }
  attr {
    key: "use_locking"
    value {
      b: true
    }
  }
  attr {
    key: "validate_shape"
    value {
      b: true
    }
  }
}
node {
  name: "save/RestoreV2_28/tensor_names"
  op: "Const"
  attr {
    key: "_output_shapes"
    value {
      list {
        shape {
          dim {
            size: 1
          }
        }
      }
    }
  }
  attr {
    key: "dtype"
    value {
      type: DT_STRING
    }
  }
  attr {
    key: "value"
    value {
      tensor {
        dtype: DT_STRING
        tensor_shape {
          dim {
            size: 1
          }
        }
        string_val: "dense_1/bias/Adam_1"
      }
    }
  }
}
node {
  name: "save/RestoreV2_28/shape_and_slices"
  op: "Const"
  attr {
    key: "_output_shapes"
    value {
      list {
        shape {
          dim {
            size: 1
          }
        }
      }
    }
  }
  attr {
    key: "dtype"
    value {
      type: DT_STRING
    }
  }
  attr {
    key: "value"
    value {
      tensor {
        dtype: DT_STRING
        tensor_shape {
          dim {
            size: 1
          }
        }
        string_val: ""
      }
    }
  }
}
node {
  name: "save/RestoreV2_28"
  op: "RestoreV2"
  input: "save/Const"
  input: "save/RestoreV2_28/tensor_names"
  input: "save/RestoreV2_28/shape_and_slices"
  attr {
    key: "_output_shapes"
    value {
      list {
        shape {
          unknown_rank: true
        }
      }
    }
  }
  attr {
    key: "dtypes"
    value {
      list {
        type: DT_FLOAT
      }
    }
  }
}
node {
  name: "save/Assign_28"
  op: "Assign"
  input: "dense_1/bias/Adam_1"
  input: "save/RestoreV2_28"
  attr {
    key: "T"
    value {
      type: DT_FLOAT
    }
  }
  attr {
    key: "_class"
    value {
      list {
        s: "loc:@dense_1/bias"
      }
    }
  }
  attr {
    key: "_output_shapes"
    value {
      list {
        shape {
          dim {
            size: 10
          }
        }
      }
    }
  }
  attr {
    key: "use_locking"
    value {
      b: true
    }
  }
  attr {
    key: "validate_shape"
    value {
      b: true
    }
  }
}
node {
  name: "save/RestoreV2_29/tensor_names"
  op: "Const"
  attr {
    key: "_output_shapes"
    value {
      list {
        shape {
          dim {
            size: 1
          }
        }
      }
    }
  }
  attr {
    key: "dtype"
    value {
      type: DT_STRING
    }
  }
  attr {
    key: "value"
    value {
      tensor {
        dtype: DT_STRING
        tensor_shape {
          dim {
            size: 1
          }
        }
        string_val: "dense_1/kernel"
      }
    }
  }
}
node {
  name: "save/RestoreV2_29/shape_and_slices"
  op: "Const"
  attr {
    key: "_output_shapes"
    value {
      list {
        shape {
          dim {
            size: 1
          }
        }
      }
    }
  }
  attr {
    key: "dtype"
    value {
      type: DT_STRING
    }
  }
  attr {
    key: "value"
    value {
      tensor {
        dtype: DT_STRING
        tensor_shape {
          dim {
            size: 1
          }
        }
        string_val: ""
      }
    }
  }
}
node {
  name: "save/RestoreV2_29"
  op: "RestoreV2"
  input: "save/Const"
  input: "save/RestoreV2_29/tensor_names"
  input: "save/RestoreV2_29/shape_and_slices"
  attr {
    key: "_output_shapes"
    value {
      list {
        shape {
          unknown_rank: true
        }
      }
    }
  }
  attr {
    key: "dtypes"
    value {
      list {
        type: DT_FLOAT
      }
    }
  }
}
node {
  name: "save/Assign_29"
  op: "Assign"
  input: "dense_1/kernel"
  input: "save/RestoreV2_29"
  attr {
    key: "T"
    value {
      type: DT_FLOAT
    }
  }
  attr {
    key: "_class"
    value {
      list {
        s: "loc:@dense_1/kernel"
      }
    }
  }
  attr {
    key: "_output_shapes"
    value {
      list {
        shape {
          dim {
            size: 1024
          }
          dim {
            size: 10
          }
        }
      }
    }
  }
  attr {
    key: "use_locking"
    value {
      b: true
    }
  }
  attr {
    key: "validate_shape"
    value {
      b: true
    }
  }
}
node {
  name: "save/RestoreV2_30/tensor_names"
  op: "Const"
  attr {
    key: "_output_shapes"
    value {
      list {
        shape {
          dim {
            size: 1
          }
        }
      }
    }
  }
  attr {
    key: "dtype"
    value {
      type: DT_STRING
    }
  }
  attr {
    key: "value"
    value {
      tensor {
        dtype: DT_STRING
        tensor_shape {
          dim {
            size: 1
          }
        }
        string_val: "dense_1/kernel/Adam"
      }
    }
  }
}
node {
  name: "save/RestoreV2_30/shape_and_slices"
  op: "Const"
  attr {
    key: "_output_shapes"
    value {
      list {
        shape {
          dim {
            size: 1
          }
        }
      }
    }
  }
  attr {
    key: "dtype"
    value {
      type: DT_STRING
    }
  }
  attr {
    key: "value"
    value {
      tensor {
        dtype: DT_STRING
        tensor_shape {
          dim {
            size: 1
          }
        }
        string_val: ""
      }
    }
  }
}
node {
  name: "save/RestoreV2_30"
  op: "RestoreV2"
  input: "save/Const"
  input: "save/RestoreV2_30/tensor_names"
  input: "save/RestoreV2_30/shape_and_slices"
  attr {
    key: "_output_shapes"
    value {
      list {
        shape {
          unknown_rank: true
        }
      }
    }
  }
  attr {
    key: "dtypes"
    value {
      list {
        type: DT_FLOAT
      }
    }
  }
}
node {
  name: "save/Assign_30"
  op: "Assign"
  input: "dense_1/kernel/Adam"
  input: "save/RestoreV2_30"
  attr {
    key: "T"
    value {
      type: DT_FLOAT
    }
  }
  attr {
    key: "_class"
    value {
      list {
        s: "loc:@dense_1/kernel"
      }
    }
  }
  attr {
    key: "_output_shapes"
    value {
      list {
        shape {
          dim {
            size: 1024
          }
          dim {
            size: 10
          }
        }
      }
    }
  }
  attr {
    key: "use_locking"
    value {
      b: true
    }
  }
  attr {
    key: "validate_shape"
    value {
      b: true
    }
  }
}
node {
  name: "save/RestoreV2_31/tensor_names"
  op: "Const"
  attr {
    key: "_output_shapes"
    value {
      list {
        shape {
          dim {
            size: 1
          }
        }
      }
    }
  }
  attr {
    key: "dtype"
    value {
      type: DT_STRING
    }
  }
  attr {
    key: "value"
    value {
      tensor {
        dtype: DT_STRING
        tensor_shape {
          dim {
            size: 1
          }
        }
        string_val: "dense_1/kernel/Adam_1"
      }
    }
  }
}
node {
  name: "save/RestoreV2_31/shape_and_slices"
  op: "Const"
  attr {
    key: "_output_shapes"
    value {
      list {
        shape {
          dim {
            size: 1
          }
        }
      }
    }
  }
  attr {
    key: "dtype"
    value {
      type: DT_STRING
    }
  }
  attr {
    key: "value"
    value {
      tensor {
        dtype: DT_STRING
        tensor_shape {
          dim {
            size: 1
          }
        }
        string_val: ""
      }
    }
  }
}
node {
  name: "save/RestoreV2_31"
  op: "RestoreV2"
  input: "save/Const"
  input: "save/RestoreV2_31/tensor_names"
  input: "save/RestoreV2_31/shape_and_slices"
  attr {
    key: "_output_shapes"
    value {
      list {
        shape {
          unknown_rank: true
        }
      }
    }
  }
  attr {
    key: "dtypes"
    value {
      list {
        type: DT_FLOAT
      }
    }
  }
}
node {
  name: "save/Assign_31"
  op: "Assign"
  input: "dense_1/kernel/Adam_1"
  input: "save/RestoreV2_31"
  attr {
    key: "T"
    value {
      type: DT_FLOAT
    }
  }
  attr {
    key: "_class"
    value {
      list {
        s: "loc:@dense_1/kernel"
      }
    }
  }
  attr {
    key: "_output_shapes"
    value {
      list {
        shape {
          dim {
            size: 1024
          }
          dim {
            size: 10
          }
        }
      }
    }
  }
  attr {
    key: "use_locking"
    value {
      b: true
    }
  }
  attr {
    key: "validate_shape"
    value {
      b: true
    }
  }
}
node {
  name: "save/RestoreV2_32/tensor_names"
  op: "Const"
  attr {
    key: "_output_shapes"
    value {
      list {
        shape {
          dim {
            size: 1
          }
        }
      }
    }
  }
  attr {
    key: "dtype"
    value {
      type: DT_STRING
    }
  }
  attr {
    key: "value"
    value {
      tensor {
        dtype: DT_STRING
        tensor_shape {
          dim {
            size: 1
          }
        }
        string_val: "global_step"
      }
    }
  }
}
node {
  name: "save/RestoreV2_32/shape_and_slices"
  op: "Const"
  attr {
    key: "_output_shapes"
    value {
      list {
        shape {
          dim {
            size: 1
          }
        }
      }
    }
  }
  attr {
    key: "dtype"
    value {
      type: DT_STRING
    }
  }
  attr {
    key: "value"
    value {
      tensor {
        dtype: DT_STRING
        tensor_shape {
          dim {
            size: 1
          }
        }
        string_val: ""
      }
    }
  }
}
node {
  name: "save/RestoreV2_32"
  op: "RestoreV2"
  input: "save/Const"
  input: "save/RestoreV2_32/tensor_names"
  input: "save/RestoreV2_32/shape_and_slices"
  attr {
    key: "_output_shapes"
    value {
      list {
        shape {
          unknown_rank: true
        }
      }
    }
  }
  attr {
    key: "dtypes"
    value {
      list {
        type: DT_INT64
      }
    }
  }
}
node {
  name: "save/Assign_32"
  op: "Assign"
  input: "global_step"
  input: "save/RestoreV2_32"
  attr {
    key: "T"
    value {
      type: DT_INT64
    }
  }
  attr {
    key: "_class"
    value {
      list {
        s: "loc:@global_step"
      }
    }
  }
  attr {
    key: "_output_shapes"
    value {
      list {
        shape {
        }
      }
    }
  }
  attr {
    key: "use_locking"
    value {
      b: true
    }
  }
  attr {
    key: "validate_shape"
    value {
      b: true
    }
  }
}
node {
  name: "save/restore_shard"
  op: "NoOp"
  input: "^save/Assign"
  input: "^save/Assign_1"
  input: "^save/Assign_2"
  input: "^save/Assign_3"
  input: "^save/Assign_4"
  input: "^save/Assign_5"
  input: "^save/Assign_6"
  input: "^save/Assign_7"
  input: "^save/Assign_8"
  input: "^save/Assign_9"
  input: "^save/Assign_10"
  input: "^save/Assign_11"
  input: "^save/Assign_12"
  input: "^save/Assign_13"
  input: "^save/Assign_14"
  input: "^save/Assign_15"
  input: "^save/Assign_16"
  input: "^save/Assign_17"
  input: "^save/Assign_18"
  input: "^save/Assign_19"
  input: "^save/Assign_20"
  input: "^save/Assign_21"
  input: "^save/Assign_22"
  input: "^save/Assign_23"
  input: "^save/Assign_24"
  input: "^save/Assign_25"
  input: "^save/Assign_26"
  input: "^save/Assign_27"
  input: "^save/Assign_28"
  input: "^save/Assign_29"
  input: "^save/Assign_30"
  input: "^save/Assign_31"
  input: "^save/Assign_32"
}
node {
  name: "save/restore_all"
  op: "NoOp"
  input: "^save/restore_shard"
}
versions {
  producer: 24
}
